10_100_32_10.pth (torch, 553151 bytes, 6 tensors)

linear1.weight f8 [256, 10]
-0.0019688410460015357 -0.003492015196871177 -0.021414809386092064 0.008761198341052082 -0.05196786950545886 -0.014874311242436827 0.005714481594604219 -0.0117618385300856
0.009170173282594217 0.007817714604640983 -0.2635757103710277 -0.20932385908442908 0.08627300623429952 0.08210200860195419 0.21434761020968046 -0.33349702750936133
-0.2596674987433045 -0.10395908186324863 0.06747432855379064 -0.10380552805155102 0.056234272477671814 0.024827461486565165 0.0757977096929042 0.06153882205066852
-0.042383788399521546 -0.029438477139247656 -0.019529081941768688 -0.019955921687412566 0.05487756920331314 0.03617701138867037 0.001388997141922032 -0.0226864736222767
-0.0026727928059665654 -0.028094394315382524 -0.01474352273864524 0.002532975553522032 0.004912875118995649 0.007329661149217202 0.0020700466980166712 -0.02516045382971833
0.0031271053464801 -0.030338912446721586 -0.022752305154274635 -0.002335839042118223 -0.055917796919211615 0.0007765835322219804 0.0022658962976116574 -0.006551091240009742
-0.006710190234820086 -0.0019916099985079067 0.004236764991727874 0.019661384804285052 -0.02283742908683599 -0.0032073728828535034 -0.014242877693726843 -0.026479173833428526
0.004584582672811978 -0.022642458218195154 -0.011866923747272027 0.00977773923643926 -0.014179045104917942 -0.00024004663694402644 0.02728330472862618 -0.0006064494409983513
0.05029209102610025 0.011421233464594114 -0.004088949683591009 0.014425875541008921 0.0015756992047610552 -0.02627126190776897 -0.012836580446792353 0.0212177370585753
-0.0008595060150010523 0.011082806186168304 0.013778919114841663 0.0016363259596893537 0.0035225491472630393 -0.011739609578898729 -0.0024906126687599915 0.004526200843593576
0.009010877894507767 0.036698504040797886 -0.023613070710465933 0.03728508138539152 0.011434752755392765 -0.006124662800567099 0.01055741016734229 -0.011411297338972236
-0.014966470727135028 0.03401865518229394 0.00013484243522060145 0.029622077518813957 -0.017384466174911867 0.010432578969943212 -0.02074135439299794 -0.014676287779775737
-0.0010328132041077694 -0.0070050077170126426 0.0009615971470759207 0.029644022465624847 -0.06091528321643099 0.03624185565957994 -0.01967960446173955 0.03173206554128466
-0.06591476801512008 0.08801332687916667 -0.024254223375007333 0.028549527146086207 -0.05692059110484874 -0.0006065188921689649 0.020082787520921123 0.026949283508948072
0.003589806950243034 0.02357832776860489 0.012718012786677968 -0.022155662548156766 0.0026413909847750237 -0.01768834758941642 0.00139978176993623 0.04003898516584339
0.005778269650457992 -0.020631146814814594 0.0266810591756406 -0.014106024298054834 -0.002714334899010048 0.018363999958287913 -0.012307256036070732 0.021856099645660147
0.007401441566048561 0.007562934249715441 -0.01670005652376435 -0.004176271761734089 0.01770680188845731 -0.01298493007946644 0.030832199020005984 0.0026969310829087515
-0.0015436559596696182 -0.006112298454358659 -0.0007324347912663231 -0.028903322289923025 0.013667019801254615 -0.002822077878552551 0.004258112748227137 -0.015278516162559232
-0.027621254013977806 -0.008452139612944512 -0.0013173243480841146 0.0035467983653395515 0.01363100175538074 0.022707252940465668 -0.02331368986044883 -0.02903024267815687
0.01892593814054044 -0.02971357314867697 0.007361113926548933 0.014540400984491289 -0.006450571255775258 0.003620931960807469 0.013214691294107359 -0.05091390917882853
0.0010654089726929218 0.0017982131837132418 -0.009491286258914612 0.0007868730794979675 -0.012580304828069861 -0.004872281114900387 -0.00026245022131442887 -0.01368506777135603
0.0011773107038071079 0.011239821234675354 -0.003916144820749453 0.006617243180574767 0.03084108292036488 -0.023236243253355462 0.04877748133974626 -0.003980226983230692
7.2661431010674e-05 -0.0011605091839339457 0.005121170831790914 -0.022618979379986224 0.010643798568543557 0.02443855849285296 -0.03270622191154974 0.061084371358328025
-0.04234984803049881 0.0267758406870322 0.018543205340607005 0.003768587131888903 -0.021108821493510465 0.023740582730731045 -0.01424240700315009 0.031181968313906884
-0.02231915751447859 0.05166419082534406 0.025548577991161954 0.010247225205736057 0.010795827769599484 -0.016122313257613118 -0.0330444309536293 0.009380545428341724
-0.24467160943017183 0.10565785476309768 -0.03464595053013798 -0.148714618754308 0.012616887585145987 -0.03738365479711592 -0.28802034236236845 0.038916628635577766
0.19372098705570984 -0.21269497433626222 0.023623500687991763 0.03385657895213827 0.0019263250784869353 0.02428471963525639 0.006377758262950407 -0.016159948636851666
8.949804348926834e-05 -0.011168858863734372 0.005081080266242895 0.04577489422198004 -0.04369317479334757 -0.06291519478562103 -0.09731939607970601 -0.00366781663735798
-0.17634598488239642 0.34650728854248714 0.21312956109396655 0.22836624312078138 -0.2795325505171588 0.2799554969607891 0.014520611310993666 0.05770760234725541
-0.026520622198667965 0.08696091047115814 -0.08998658494094183 0.019364624653142017 -0.00860449684072856 0.04120856572623043 -0.12396460023338765 0.10949518345392703
0.07373114970398492 0.02041689366577501 -0.12920811874250054 0.03350869943185151 0.04103668851167109 0.08671628412457523 0.1513266776135935 0.007069964362023964
-0.18607034638388847 0.18649599518425944 -0.017037898945911838 -0.024333256288047646 0.002770778479713291 -0.01898808807360503 -0.0032614058658816144 0.007634262181867285
00000000: 8248 ea7c f520 60bf 4992 2a62 499b 6cbf
00000010: 9b75 da87 c3ed 95bf 95e8 c922 64f1 813f
00000020: e3fe ef57 889b aabf a3bf b142 6c76 8ebf
00000030: 1eab ff78 1168 773f bad2 9e3e 9716 88bf
00000040: 1977 c7d2 cfc7 823f 027f 73e4 bb02 803f
00000050: e910 04a8 6cde d0bf 2823 85cc 1fcb cabf
00000060: bdcd 4ddc fc15 b63f 229d e121 a304 b53f
00000070: 4ac5 e913 be6f cb3f 9fd1 9dea 0358 d5bf
00000080: 7cf1 bb6d 649e d0bf 178f b9f8 0f9d babf
00000090: 5f45 7562 ff45 b13f ac1b 20c4 ff92 babf
000000a0: b772 6912 bdca ac3f 8e8e 82bc 5e6c 993f
000000b0: 4623 3e8c 7a67 b33f 40b2 4838 0482 af3f
000000c0: 66f1 1cf2 53b3 a5bf a77b 3ac2 1e25 9ebf
000000d0: 560f 0b81 6eff 93bf 8230 093c 536f 94bf
000000e0: f53f 06aa e918 ac3f 420e 9011 cb85 a23f
000000f0: fd6a 1f53 e0c1 563f fcb4 1379 1f3b 97bf
00000100: 227b 19b6 40e5 65bf 2159 24e3 c6c4 9cbf
00000110: 9229 ec1f da31 8ebf cc08 3fe5 08c0 643f
00000120: 965a 72df 851f 743f 988e d3ee b405 7e3f
00000130: d046 d0db 33f5 603f 0396 6779 a9c3 99bf
00000140: 2188 37e6 039e 693f 5cfe 04f3 2911 9fbf
00000150: c454 2f5a 614c 97bf 2c82 6d09 9c22 63bf
00000160: 9094 10ea 41a1 acbf cc07 cf6f 7472 493f
00000170: 18e0 d1cf ed8f 623f ff31 102a 51d5 7abf
00000180: e160 bcf9 247c 7bbf 2057 eb79 b550 60bf
00000190: 04f2 48f1 915a 713f 86f5 e932 1d22 943f
000001a0: acf1 35ec b162 97bf 8bf2 6934 5946 6abf
000001b0: e1f3 29af 5e2b 8dbf d306 8f46 5b1d 9bbf
000001c0: 421d 548a 48c7 723f ee59 31a6 952f 97bf
000001d0: 3274 308b af4d 88bf dd9c fef1 5906 843f
000001e0: f3f0 1c38 e709 8dbf 1095 0ee9 a076 2fbf
000001f0: 241f 2596 27f0 9b3f c499 0442 44df 43bf
00000200: 85bb 688c e2bf a93f bfec ae01 0464 873f
00000210: 2dfd a712 93bf 70bf 7782 513d 508b 8d3f
00000220: 80c7 6023 f6d0 593f 43c3 df8a dae6 9abf
00000230: b80a b1a9 104a 8abf 39fd 0b3b 1aba 953f
00000240: 838b d11c 0f2a 4cbf 80a3 f010 95b2 863f
00000250: 8fa0 c737 1f38 8c3f 92a6 e09e 3fcf 5a3f
00000260: 2a80 5a2c 52db 6c3f b665 acb9 ef0a 88bf
00000270: 78cf b27e 3167 64bf 0ee4 92c9 108a 723f
00000280: 1cd9 eb8e 4b74 823f 00af 5575 25ca a23f
00000290: e39d d659 062e 98bf fc9f 5bba 0717 a33f
000002a0: 4e62 fa88 1a6b 873f ede3 d6a6 2c16 79bf
000002b0: 1d8c 319b 1f9f 853f a6ac 0167 ce5e 87bf
000002c0: 6008 7ab2 bda6 8ebf 0c78 eca6 e46a a13f
000002d0: 64a7 e2b2 8fac 213f 9f45 bbf8 3f55 9e3f
000002e0: 05fa b7c6 3bcd 91bf c326 e90b ad5d 853f
000002f0: 3bb2 2bbb 383d 95bf 169a 5300 9a0e 8ebf
00000300: 502c cfbb eeeb 50bf 9641 d870 48b1 7cbf
00000310: 301d 3926 7682 4f3f ab07 0cac 005b 9e3f
00000320: db77 7bba 4930 afbf 71c6 9be1 4a8e a23f
00000330: 3fdc 3ee6 e326 94bf 38fc 776f 2f3f a03f
00000340: 38c8 f24c cadf b0bf cbe4 8e98 0a88 b63f
00000350: f3fc bd60 19d6 98bf 6d83 a255 163c 9d3f
00000360: 2554 871a b224 adbf 88ea 3367 d9df 43bf
00000370: 4ea1 750e 9590 943f 1948 49cd 9798 9b3f
00000380: 176d 68ee 5e68 6d3f 1a61 a4ca ea24 983f
00000390: 0d40 e9c7 e60b 8a3f 511e 4358 f9af 96bf
000003a0: 2b69 a8fc 65a3 653f e6d3 aae9 e41c 92bf
000003b0: 4633 193b 1cef 563f 2364 b467 fd7f a43f
000003c0: dca8 d172 f4aa 773f 40f8 64d3 5420 95bf
000003d0: 4afc 5392 4752 9b3f 7537 4b88 9ee3 8cbf
000003e0: c578 e473 5f3c 66bf 5076 fa2c 03ce 923f
000003f0: b868 6df1 8b34 89bf deef c804 7261 963f
00000400: cdcc 8257 f950 7e3f 06ae 3ab4 4ffa 7e3f
00000410: d694 71d2 d119 91bf 9177 2c6a 231b 71bf
00000420: e256 1c5c bb21 923f 81da 41d0 d797 8abf
00000430: fb99 d1d9 7992 9f3f 86ff 9ed9 df17 663f
00000440: 5a51 3cf7 8f4a 59bf ea12 709f 3509 79bf
00000450: 99e1 cabc 1b00 48bf ac82 ec1f d598 9dbf
00000460: bd31 a458 74fd 8b3f 94a7 3e86 531e 67bf
00000470: 4be9 f06f f470 713f ee2d ffb9 574a 8fbf
00000480: 117e a8fa be48 9cbf 2826 c0f9 5a4f 81bf
00000490: cd56 913f 4295 55bf fa2a 82df 2c0e 6d3f
000004a0: a435 0216 92ea 8b3f 3292 0bf3 9140 973f
000004b0: 2ab5 ff3d 8bdf 97bf 962b 979b 1aba 9dbf
000004c0: bf5f 7035 5261 933f e5f8 ae23 3c6d 9ebf
000004d0: 8bfd 39f9 af26 7e3f 48ca 9795 5bc7 8d3f
000004e0: 495c 5809 ea6b 7abf e064 490b a5a9 6d3f
000004f0: 05bb 7ad7 4d10 8b3f 6e4e ab4d 6311 aabf
00000500: 1a04 742c a674 513f ad9e 2db4 4076 5d3f
00000510: 47d1 a1e0 2a70 83bf 5ef7 3e12 c5c8 493f
00000520: 576f 7bee b3c3 89bf b005 ba00 f5f4 73bf
00000530: 752f 0c1e 2f33 31bf 8011 2cb4 ea06 8cbf
00000540: f3d3 15be ff49 533f 7531 ed44 e704 873f
00000550: 2280 e71e 600a 70bf 7ad0 cdb0 ae1a 7b3f
00000560: 7694 100a ce94 9f3f 7795 6be3 3dcb 97bf
00000570: 135b 45ae 5cf9 a83f bdff 930b 924d 70bf
00000580: 38f8 25e1 390c 133f d313 783f 8703 53bf
00000590: 371a d6d3 eff9 743f b9e1 d202 6e29 97bf
000005a0: b18d 0e76 6acc 853f 2ae7 f3e5 6b06 993f
000005b0: 05be f8b2 debe a0bf e3bc 8f62 7346 af3f
000005c0: f228 9018 e1ae a5bf 7f7a 4b40 206b 9b3f
000005d0: 13f1 0072 fdfc 923f 3890 79cf 4cdf 6e3f
000005e0: 030d e307 8d9d 95bf b177 aa89 734f 983f
000005f0: d8da 5b82 1f2b 8dbf 6a55 8878 2aee 9f3f
00000600: 4c55 654e d5da 96bf 3735 f093 ba73 aa3f
00000610: c2b2 b90b 6829 9a3f 3b2b 1149 7ffc 843f
00000620: 2522 a179 1f1c 863f 3692 b520 5e82 90bf
00000630: 6083 851c 33eb a0bf e6bd aa7e 1b36 833f
00000640: 2b92 6138 6651 cfbf cbe4 c5a6 640c bb3f
00000650: 417a ee30 1dbd a1bf 7751 fea3 1409 c3bf
00000660: 74af 71fc e1d6 893f d062 844d f323 a3bf
00000670: b5dc c1df ec6e d2bf 0051 855e e1ec a33f
00000680: 9cff f96b d9cb c83f 7e1e 66c3 9639 cbbf
00000690: 97e2 7c4b c230 983f 362f b546 a655 a13f
000006a0: d010 abcd 978f 5f3f 69fa 80f2 17de 983f
000006b0: 8e22 9472 901f 7a3f e1ec 99cb 3b8c 90bf
000006c0: 122a ebad 1c76 173f e451 6ddc b2df 86bf
000006d0: 155b 2619 e6cf 743f 2691 5293 ce6f a73f
000006e0: 4278 97a9 f35e a6bf 1195 06d0 351b b0bf
000006f0: 5bc6 6d87 ece9 b8bf 6969 2a10 f80b 6ebf
00000700: 1de7 ec56 8192 c6bf 4866 07e8 2c2d d63f
00000710: 49ce 5a57 d447 cb3f f968 dbe4 1a3b cd3f
00000720: e3df a87e dce3 d1bf 8f0c f275 caea d13f
00000730: 71d3 9675 fbbc 8d3f 07c3 9fd1 d98b ad3f
00000740: b028 0dd4 3828 9bbf ae06 81fa 1143 b63f
00000750: 126b 665f 5c09 b7bf fa96 56f6 51d4 933f
00000760: e057 3c04 3c9f 81bf 7fec 3704 4a19 a53f
00000770: 9236 dddf 24bc bfbf 1e0f 0158 e007 bc3f
00000780: 0cd3 ac6c 0be0 b23f d857 528a 2ae8 943f
00000790: 8238 3042 e489 c0bf 8df1 6160 0d28 a13f
000007a0: 2102 30c6 c202 a53f 717f 58d4 0933 b63f
000007b0: 976d ae2d ac5e c33f d01d 801b 65f5 7c3f
000007c0: 5ab2 3c32 27d1 c7bf 0560 13cc 19df c73f
000007d0: 2e9c 0f0b 6272 91bf 8a72 d92f d1ea 98bf
000007e0: eff5 8d5e beb2 663f 71a7 2805 9d71 93bf
000007f0: c7e0 0df1 a9b7 6abf 2d42 67a6 1a45 7f3f

linear1.bias f8 [256]
0.021320317034009856 0.17567627535361513 -0.08620883655420232 0.005634547834257185 -0.0032589990196593677 0.011999406433464251 -0.007917614283690227 0.003339381066047744
-0.002247306780578306 0.021345811856767094 -0.05410607389767625 -0.005791650677665646 -0.013957417148626007 -0.014100636411899464 0.0035553256384840623 0.005937089839848434
0.005073178875518657 -0.01148018647211051 -0.04774460105746045 -0.017333092181801055 0.18099456587089535 -0.009125237749934475 -0.15520015085685596 -0.029472789291203748
-0.14336230949540116 0.005875557406821397 0.0037108762999918956 -0.006119185720231156 0.013378724891322575 0.09926154293627983 -0.009839534629669884 0.011532609855493614
0.007274623809788644 0.0026541663910985055 0.01378116706590804 0.0038454208997209466 -0.03961396219804093 -0.006320337282150097 0.015212714937893033 0.17060049584079243
0.015108885095176106 0.0034480877469540614 0.023786534475282145 -0.010093108432965292 0.01168011931594843 -0.008708844717721206 -0.0017140616383259826 0.004609250580617544
0.026408052286880576 -0.075020716310187 0.053103520956427765 -0.09533586293851341 0.012003930225599488 0.11348311412044236 -0.007574571949119961 0.01674250722703255
-0.004827678939243173 0.0042205510706400514 -0.12329952361438838 -0.004458737526587612 0.010134061343073252 0.26664926255831745 0.0009139328100978202 0.005264816923759051
0.006536523528806162 -0.025217485202884266 0.006389524547780024 -0.0011714903145026675 -0.013797311238260656 -0.023460180048853946 -0.0024977401943733647 0.008934325199018
-0.004049049366034574 -0.17418253234695472 -0.004425783199130995 -0.013032817908803587 0.00602979136298342 0.0035123298920496605 0.0031038678057647173 -0.001590500542479778
-0.0009361390461937154 -0.010957295751168643 -0.0009026290437174743 -0.008092169837536566 0.010828977616200776 0.002510290652450599 0.009804256480846256 -0.009403289308518805
-0.023618160845809963 0.17678780405154143 0.01059998297896729 0.013039445409295898 0.026395966291592632 -0.0034029065950922756 0.002033678072618514 0.0076076700895459145
-0.004211594158358337 0.007604909277688431 -0.007621985547371356 0.1667544548366837 -0.08919491091691215 -0.013243257969487875 -0.0017140831587123696 -0.005043277094757969
0.0009751505846875536 0.011016041183162503 -0.049922134347216526 0.018926838146089295 0.0160900561342348 -0.11210678078045481 0.018381286708335796 -0.006095874841229659
-0.012790110927377687 -0.030621104600735995 0.009516984034266568 -0.006489532514314445 0.009446556167977429 0.015696774845153586 -0.002384247355528015 -0.016688477717388312
0.007507774041936538 -0.004592573998792723 0.012201818977908202 -0.009446944482466451 -0.0011246369977990266 -0.004319967222251027 0.0070017069697002835 -0.012160820118709139
-0.0020695463044382925 -0.035465428516603094 0.010240144593980257 0.002945820621134069 0.011899409428497447 -0.013915047124951056 -0.009426508215017646 0.014142807030430617
-0.01032031948258043 0.01364562176041019 0.006725994827772195 0.007749212348470238 -0.020321488668671353 -0.0019841278394206385 0.005771094925297304 0.03225405675063473
0.009278003817437422 0.008571110658212734 0.004016143542268606 0.022192250288701643 0.0011323962941765886 0.00804381398074527 -0.018767998700956967 0.01824555046651219
0.05673551408403308 0.017753619917856785 0.013353592996371438 0.0032068375344135873 -0.006180354481641625 -0.006268013667285833 0.0048823544928585936 -0.0008642502950295477
-0.009686602962848127 0.01355855337070009 -0.007980809811859668 -0.005799348877433678 0.010331154735050578 0.010740773415632253 0.007869605352451299 -0.16708298842709177
0.10827333433348359 -0.004491739718821577 0.0018424842129866352 -0.15284608156331275 0.015047662102888998 -0.009826377467686035 0.009221137958840567 0.002477178813250363
0.006212288578688498 -0.008431709071660765 -0.010978848586243498 0.08493701107246797 -0.0022130025997219457 -0.0029203400340924502 -0.008814179941602204 -0.0020660399646578115
0.0016169761647322647 0.0005261281644605564 0.011106256158384368 0.0014720144363221418 -0.0073937795930570805 0.008508977569829022 -0.06452790303233472 -0.005607147691659963
0.005085868383330616 -0.01904959467916252 0.0020975629108954575 -0.2205105973078498 -0.00887599096556286 -0.009035816897796128 0.002184347821421688 0.020194227391392486
0.0015939051840907351 0.009123596607096043 0.007458658631301886 -0.004904154170733459 0.11354581918789715 -0.007164484572686156 -0.00923359609437573 0.07662472296233487
-0.004817068741718725 0.06759913999822997 0.009745769328441947 -0.004663891364409822 0.0023837937633272408 0.012634933147098886 -0.0202611346732194 0.004204523094419827
-0.001498054321495725 0.008646930876458491 -0.031174189711541136 0.0015489258836022006 -0.0004925542565199677 0.01140418280507635 0.0035218387724037475 -0.24997271989713538
-0.01044311745964201 -0.003494888343894759 -0.018397861727887512 -0.013874244194390397 0.005876081383334458 -0.0013404614115436568 0.02066019027402074 0.013050861353574661
-0.0015065279375260773 -0.1481029891060751 0.001674175942422857 0.0521314527637961 -0.02457422712762403 -0.0023924331342881685 -0.00818940627035647 0.012929127681386704
-0.004335812081598465 0.002179325204041815 -0.00582625177071208 0.013576187116354521 -0.2193504902833023 0.003280803497139664 -0.004775836055470828 0.010192685687606428
0.006168136829938839 -0.008453471807889319 -0.0041227041480603665 0.001959922948911684 -0.012474454735021246 -0.014443041639124745 0.007404459651117858 -3.8767428383676734e-05
00000000: e80e 9b41 fed4 953f ced6 a968 8f7c c63f
00000010: d962 a045 c811 b6bf e569 d06a 4014 773f
00000020: 7bd5 a0c6 9db2 6abf 5e08 a011 2593 883f
00000030: 504d 4933 1c37 80bf 6b39 f68e 305b 6b3f
00000040: 4c9f 0da4 f168 62bf 4056 532f addb 953f
00000050: e99a cf93 cab3 abbf 15c3 0164 fcb8 77bf
00000060: 5413 85d1 b495 8cbf a366 ef61 cbe0 8cbf
00000070: 3063 01eb 0e20 6d3f 9106 216b 7d51 783f
00000080: b2b9 b615 9dc7 743f 5afa 988b ec82 87bf
00000090: 7c68 34f8 fa71 a8bf 6cd0 3c20 c4bf 91bf
000000a0: c8a8 9576 d42a c73f 0b30 a2ad 40b0 82bf
000000b0: ead9 213a 99dd c3bf 96ae 8268 1d2e 9ebf
000000c0: f381 6137 b259 c2bf cd72 87ee f710 783f
000000d0: 038b 228b 4566 6e3f e5a3 be68 6e10 79bf
000000e0: 5d9a f60e 4e66 8b3f 256d a958 3469 b93f
000000f0: 31d0 89fb bf26 84bf 2dc1 55b1 689e 873f
00000100: adf0 a8f5 fecb 7d3f 0c15 22bb 30be 653f
00000110: 0051 caee 4c39 8c3f f2f3 1da0 6e80 6f3f
00000120: c20c 3600 4848 a4bf 080b d39e 5ae3 79bf
00000130: 520a 2209 d827 8f3f b5a6 28af 3cd6 c53f
00000140: 6005 e73a 68f1 8e3f 2bc6 6b03 2a3f 6c3f
00000150: 0845 a04e 7f5b 983f 4098 1315 b2ab 84bf
00000160: 2492 cd13 bfeb 873f 5e0a fd59 f1d5 81bf
00000170: d41b 84ab 4b15 5cbf 6a8e 0b48 26e1 723f
00000180: fc5d b163 b60a 9b3f 9e22 13c3 8e34 b3bf
00000190: ade0 9e7b 6230 ab3f 5bf4 745d ee67 b8bf
000001a0: a577 f03d 8495 883f 3ba8 cbb7 3a0d bd3f
000001b0: abbb d7ac 8306 7fbf e8fb f8a3 f224 913f
000001c0: f2df 8d32 30c6 73bf afa8 1c8d 9149 713f
000001d0: f342 89bd 8e90 bfbf d1f2 ba3d 5343 72bf
000001e0: 396f 5ab0 2ac1 843f 0031 8c11 c810 d13f
000001f0: b5b1 dac3 9ff2 4d3f 258f 1c88 8f90 753f
00000200: e975 92ac 0ac6 7a3f a55c efc8 9cd2 99bf
00000210: c1e8 83ef e62b 7a3f 6fd9 a725 9631 53bf
00000220: b918 54c4 c341 8cbf d8bb 4508 f205 98bf
00000230: 6410 5c0e 2476 64bf 2638 55d4 284c 823f
00000240: 0d4e b669 bc95 70bf 1579 fbfb 9c4b c6bf
00000250: f35c 9721 c520 72bf ae55 8b35 f3b0 8abf
00000260: f79d 4acb b1b2 783f 369a 9cc0 e3c5 6c3f
00000270: 8592 f056 486d 693f 0032 1cf4 0a0f 5abf
00000280: e8a7 404b e7ac 4ebf b61f 3b57 c770 86bf
00000290: 6f5e 911c cd93 4dbf 397a 72a6 a092 80bf
000002a0: a182 afc5 802d 863f 50f0 2e08 7690 643f
000002b0: fc1b 9307 4114 843f 2177 7020 0842 83bf
000002c0: 8c9b b2f1 5b2f 98bf d2d3 5d96 fba0 c63f
000002d0: 58d1 dca1 71b5 853f 772b babc 6cb4 8a3f
000002e0: 30f5 df4f 8b07 9b3f 5a44 3191 69e0 6bbf
000002f0: 94e8 ff99 eea8 603f a6d4 bb63 3829 7f3f
00000300: 5d6a c932 2d40 71bf 0c00 304a 5326 7f3f
00000310: f234 812a 3b38 7fbf d730 fec0 3558 c53f
00000320: e296 5b49 7ad5 b6bf 79b6 f8fe 471f 8bbf
00000330: 48ac fec6 6215 5cbf 2686 fc62 42a8 74bf
00000340: e727 59ef 27f4 4f3f 5892 e704 948f 863f
00000350: 0652 bcdc 648f a9bf 5ca3 6a9b 8e61 933f
00000360: 8da3 8c63 e979 903f 23a5 1cad 07b3 bcbf
00000370: d632 1545 8bd2 923f 1363 56f1 fcf7 78bf
00000380: bb92 29a1 b331 8abf e76a 4f8b 235b 9fbf
00000390: f046 78f9 a37d 833f 411b a59e c494 7abf
000003a0: ce0a 694e b758 833f 1150 73ba d012 903f
000003b0: 1eb6 5c0d 2188 63bf b598 10c8 c816 91bf
000003c0: 462f 9dbf 78c0 7e3f 5682 11b2 a9cf 72bf
000003d0: d0d2 b16b 44fd 883f d668 cb6c eb58 83bf
000003e0: 14db 06c8 116d 52bf 7b9e 075f d0b1 71bf
000003f0: 9a73 3767 d2ad 7c3f 0e81 9ea5 c5e7 88bf
00000400: 906c 3e36 27f4 60bf 9520 3c4f 8628 a2bf
00000410: be82 19f1 c8f8 843f 6fef 4867 d521 683f
00000420: 0967 b2b2 b75e 883f 3c7a 9702 7e7f 8cbf
00000430: 32e7 fd83 344e 83bf 14ce 5a6d e7f6 8c3f
00000440: d9ae 4bd5 d122 85bf 086f 8e59 3cf2 8b3f
00000450: bef2 177d b78c 7b3f 69f9 b359 a3bd 7f3f
00000460: 84b0 f304 28cf 94bf 6efc cd85 0441 60bf
00000470: b3d0 757f 6ea3 773f 2d8a d08d 9a83 a03f
00000480: 9b94 be97 5800 833f 1447 bdff ba8d 813f
00000490: 51ab b852 3b73 703f 60c5 dbb4 90b9 963f
000004a0: a9a5 2c43 9d8d 523f fef8 db6f 4679 803f
000004b0: f025 8712 eb37 93bf 786a 342a f6ae 923f
000004c0: 9d7c 06f3 6f0c ad3f 4f32 bb43 012e 923f
000004d0: d6c9 a0e9 2059 8b3f 813d afca 3945 6a3f
000004e0: cc7a 0546 9250 79bf a7d5 631b 7dac 79bf
000004f0: a128 fd0d 85ff 733f 4ccf 5860 db51 4cbf
00000500: 6268 7ad7 91d6 83bf f43f 773a 96c4 8b3f
00000510: 00ab 1929 3e58 80bf d149 44dc 0ec1 77bf
00000520: 5c54 bc1d 8028 853f 2c5c 6e34 42ff 853f
00000530: 443a f88c f01d 803f 3b93 81b1 f962 c5bf
00000540: 5dbe fd1d cdb7 bb3f 1c9a 1c33 ee65 72bf
00000550: 870a 0b5c f02f 5e3f 3e6e d1dc 7590 c3bf
00000560: 03c4 e704 4fd1 8e3f 5518 e50e da1f 84bf
00000570: 2893 b82f 88e2 823f d8f8 a73f 054b 643f
00000580: 82e3 7584 0e72 793f ed85 b2d5 a444 81bf
00000590: a855 011d 147c 86bf a7b7 c694 6ebe b53f
000005a0: 632b 56b9 0021 62bf cd6b 119e 65ec 67bf
000005b0: 18d0 b834 2b0d 82bf f2ea 92c2 ccec 60bf
000005c0: ce6c bdef 167e 5a3f 7b2d 43a1 7b3d 413f
000005d0: 8f9e d977 e0be 863f 8e61 3f77 131e 583f
000005e0: 7277 bc98 f048 7ebf f218 14a3 276d 813f
000005f0: e20d 3491 e684 b0bf 2533 5a3f 85f7 76bf
00000600: 26f7 0c66 ebd4 743f d4a2 98a8 bc81 93bf
00000610: e9ad 5083 e82e 613f efe7 edf5 b039 ccbf
00000620: 655e 5557 932d 82bf 56a7 8cd0 5e81 82bf
00000630: 8a54 98ce e8e4 613f 9127 dba8 cbad 943f
00000640: bfbb dea8 521d 5a3f 3b1e 6568 64af 823f
00000650: e8a6 4b6e f88c 7e3f ab0a 72dc 6016 74bf
00000660: b571 02bc 5611 bd3f 0a0b ebae 8158 7dbf
00000670: 1aa0 ff49 10e9 82bf ad33 3087 ad9d b33f
00000680: 840e 550b 10bb 73bf 28b6 875f 2d4e b13f
00000690: fbf4 5104 97f5 833f 8ca4 1dce 711a 73bf
000006a0: 59f1 1f88 2d87 633f d642 3b05 58e0 893f
000006b0: 958f 34bb 55bf 94bf c713 f912 c338 713f
000006c0: a293 6194 4b8b 58bf 73ee 996a 7bb5 813f
000006d0: 7456 2975 20ec 9fbf 8c5d e580 aa60 593f
000006e0: a058 2d36 d823 40bf 6fb7 7b81 135b 873f
000006f0: f720 2dcb d4d9 6c3f c2d8 6c28 1bff cfbf
00000700: 0adb a87f 3363 85bf da83 7ce4 4fa1 6cbf
00000710: 071c c099 e3d6 92bf eeaf 9288 196a 8cbf
00000720: c6bf eb95 8411 783f 2bf2 247b 4df6 55bf
00000730: d666 39e6 f127 953f 6dfb 95f5 68ba 8a3f
00000740: bc46 380e d6ae 58bf 8441 53eb 09f5 c2bf
00000750: e9c0 e8ba 006e 5b3f 574c 6d49 f9b0 aa3f
00000760: 61b9 5977 fc29 99bf 0c72 3ac2 4b99 63bf
00000770: 80b5 d680 9bc5 80bf 5d7b 7524 967a 8a3f
00000780: 571b 79b1 6dc2 71bf b293 514f 60da 613f
00000790: 9ef9 038d 44dd 77bf 2d5b 5afd d4cd 8b3f
000007a0: bf6d 1047 ad13 ccbf 06b4 31f7 57e0 6a3f
000007b0: 0079 b5ba d38f 73bf 7350 7e1d e7df 843f
000007c0: cab2 639f c243 793f aace 9ec7 0d50 81bf
000007d0: 77c3 caf7 f7e2 70bf 16f3 fb9e 410e 603f
000007e0: e791 faf8 348c 89bf 615d f53b 5094 8dbf
000007f0: 42d6 bc80 2354 7e3f 626b 4bb2 4653 04bf

linear2.weight f8 [256, 256]
0.053818665140666126 0.028983796744479214 0.02068660626570719 0.06106968706920291 0.0014494029017493052 -0.07890859284501685 0.039524753156789834 0.06015841188336064
-0.0022116924589985743 0.02086683259768972 -0.04564164212333022 -0.015256554503279406 0.04440719647355496 0.01906609666989084 0.009035531133415818 -0.012992707032778774
-0.009288768633925765 0.048997865796202106 -0.009782252489559096 -0.035512750403410405 0.05547489153284202 -0.009153473384938583 0.0004573776109606464 -0.016555877338518446
-0.04379708513680098 0.03602141630676035 -0.006006776603080799 0.009589128936561449 -0.03704319798591919 0.0766124753316027 -0.008793927643133734 -0.04804298330139
-0.04467863486833516 -0.006648363350142827 0.044102739573361006 -0.09881138325234877 0.007687214993319926 -0.046023189861385226 -0.061519850813824065 -0.018365189868212405
0.032947625137551576 0.027562213784932243 0.015298819283918547 0.05349200984194471 -0.03993528030206203 0.018604905565946902 0.0017626608660740682 0.04683625532651471
-0.014592432815094177 -0.013095785676452074 0.03933255189690412 -0.016512887347944774 0.04551794147416834 0.04439911240887242 -0.017180700929285794 0.006325932042561857
-0.031055044777961498 -0.012186147241861595 0.03421578411296603 0.0001788931155154593 0.023444797174967783 0.023607532974526547 -0.026388479394508932 0.03659218064613879
-0.01771317719079578 -0.04221529543755298 -0.0092844333368192 -0.00946492755223057 0.03845568555488506 -0.016222600499311388 -0.025786110742047556 -0.004045903959627066
0.00736266412414859 0.016753025549490656 0.0041134855367909425 -0.037216453965946535 0.0007165175675084834 -0.054511154708118265 -0.062418084954536754 -0.011211514580399005
0.04782235717747067 0.07288503178313162 0.009859164193736622 0.015188077431439687 0.06041056174495966 0.017879185264172582 -0.02808813247600073 0.01894628325119047
-0.007077307061537328 -0.017147493418148554 -0.006380525961086317 -0.06439024453332491 -0.03816437990856648 -0.024229254666905037 -0.022451542185991758 0.040552745917012696
-0.02575114403437686 0.0025421943120160326 0.005099619691908051 0.025328227359587657 -0.07735854164592075 -0.005787671974833601 -0.02808586382388539 0.06188898846042259
-0.014217181649219895 -0.013688985831889619 0.011816984076584422 0.051289367430137525 0.037379201889117857 -0.007535233476146437 0.03159035260135516 0.012010019253205535
-0.03640248555238682 -0.026688637533943963 0.04195155871178434 -0.01434477322711964 0.030005241238781646 -0.061490205278845855 -0.019530511097377738 0.03580004178653521
0.06187563654552812 0.014409584034717225 -0.04576224955053769 0.1025946654119291 -0.02285665199388357 0.012748050373917278 0.02280044616394869 0.012969209044950086
0.01308500476286121 0.020989218548914057 -0.062142397765871646 0.0329015635414235 0.006825788185900022 -0.009067152079464574 -0.03624692535327652 -0.04825531967419911
-0.0029044603627982873 -0.05916965647338065 0.006174969350107945 0.01757347171697436 -0.012949305502159624 -0.034990135623831846 0.011839598713368616 0.04836220953699202
-0.06056071091903536 0.03244403091145258 0.00576190631606572 0.01979192815120768 0.0636656538535874 -0.001060935328955271 0.005977806771976965 0.01861764664762823
-0.029495675547793015 -0.03194253980238884 0.0018807874367678754 -0.017003263121436837 0.007268704191324149 0.029340830328243233 -0.009515935146971473 0.012202501458308972
-0.012604673843678265 0.010163019084589203 -0.030612329527995714 0.0026948980946075794 -0.007874897713373562 0.03171741900921113 0.0046258899031025764 0.0074784027729182
-0.03507220342053546 0.013129329955022064 -0.004836699937526133 0.03748585126606338 -0.06844874203088598 -0.015533156586754259 -0.01052184062746732 -0.02942683385652909
-0.009956998467408277 0.03394242625355485 -0.0009827245512957984 -0.04109298033011571 0.01395242894471931 -0.025974289906652914 0.052318215261348576 -0.0010224973697078314
0.006102364889222642 0.03935964964774199 0.028119607277805398 0.02107491855478391 0.03821290374438307 0.008781048683517702 -0.027365601589600472 0.041121953737870455
0.0025492486109747973 0.06875678919319815 -0.005393396417320179 -0.016006898985229376 0.007296098917129164 -0.011807216205642429 0.02621253252752927 0.00616189669563799
-0.013695198294492833 0.017177342983344588 -0.002803589612587114 -0.08383204792715379 0.04244607352615599 0.01895259009663783 0.04359180713383384 0.02181638795508098
0.01537138770502375 -0.05181119370447014 -0.006375858378917871 -0.08408894769628573 0.08596265892806816 0.013623759286152124 -0.00844823058091563 -0.04509095904851451
0.03656531421534758 0.010051735040984123 0.02430440490665021 -0.04627872681709712 0.0013351839105053692 -0.025237216391690832 0.0546654440252539 -0.020451653558854338
0.02963703405879006 0.023633072325592846 -0.03535628353326964 0.013861070347729883 0.053557295670525105 0.04044034427736041 0.0013989282588163167 -0.024632413676314052
-0.023031040297596606 -0.05361328064080137 0.0211112796643469 0.009944248556305551 -0.029798649210868295 0.03547450332266513 0.0025941995790662777 -0.07501668476660728
0.0052650129751790845 0.06094733984311158 0.04552182467767526 -0.029815380704461877 0.037921637962944184 0.03713974193552406 0.0119352520494526 -0.022905506964993695
0.011636751397693096 -0.02746965418974331 -0.021402666551048697 0.08212497554231833 0.0020430072986403693 -0.023672684767855674 0.010673518227076505 0.0004360236771686817
00000000: 2f17 63bd 1e8e ab3f b29a 86ac edad 9d3f
00000010: c479 81a5 de2e 953f e175 7aa9 8644 af3f
00000020: 8c8f f383 3cbf 573f c189 a481 5a33 b4bf
00000030: b1bb 61a4 963c a43f f995 3c57 15cd ae3f
00000040: 3b78 f758 411e 62bf 7c0f 506e 1d5e 953f
00000050: f0c8 8260 575e a7bf 663b 2115 d43e 8fbf
00000060: d136 1f41 8abc a63f 8f62 a316 1086 933f
00000070: ff94 c275 3881 823f 419e 569e eb9b 8abf
00000080: 6ac7 056c fd05 83bf ac43 568e 3f16 a93f
00000090: 3ae3 30b4 b708 84bf 91b6 252b ba2e a2bf
000000a0: c0f1 c379 3467 ac3f 9439 aa66 0ebf 82bf
000000b0: 991f 89e1 85f9 3d3f d4ef e61e 06f4 90bf
000000c0: 5937 a550 926c a6bf 6d7c fc29 6671 a23f
000000d0: 80a4 08d1 8f9a 78bf e4f0 6f19 77a3 833f
000000e0: a60d c777 53f7 a2bf 94cc 030c e09c b33f
000000f0: 1892 0bfd 8c02 82bf 5fda 2904 1799 a8bf
00000100: 16c9 2d37 1ee0 a6bf e696 9272 503b 7bbf
00000110: d55f 4360 a294 a63f 9396 8aeb b34b b9bf
00000120: 82e8 e50f a17c 7f3f 03df 9ffe 5990 a7bf
00000130: 52b0 99a6 877f afbf 73a7 7907 53ce 92bf
00000140: 82af e4d8 82de a03f b31f 3fdb 4439 9c3f
00000150: 104c efc3 fc54 8f3f 23a7 bc01 4e63 ab3f
00000160: dc38 b5a5 6572 a4bf 6fbb cd13 2a0d 933f
00000170: ebbe 84b1 22e1 5c3f 22fa c9f1 ebfa a73f
00000180: 91e3 ad2d a3e2 8dbf b8f8 9099 f6d1 8abf
00000190: 837f 2170 6523 a43f c4e1 7c1c c1e8 90bf
000001a0: 138d 06ac 204e a73f 53fa 88ff 7abb a63f
000001b0: dc5d 7452 d197 91bf a914 d573 38e9 793f
000001c0: 5ee4 c9c6 e4cc 9fbf f0bc f1fe 0cf5 88bf
000001d0: e55b 8b33 bb84 a13f 3ad2 4629 a872 273f
000001e0: 71e8 82b4 e901 983f 9d63 42b8 922c 983f
000001f0: 1c5c f6df 9405 9bbf 1138 54d6 35bc a23f
00000200: dc8b f832 6723 92bf 602d 9742 3e9d a5bf
00000210: 9426 598c b703 83bf 2be1 5d12 5962 83bf
00000220: 2a63 9baf 76b0 a33f cc07 674a a89c 90bf
00000230: ee00 5099 ac67 9abf 4599 0713 7092 70bf
00000240: b691 fe19 5028 7e3f a15f 6083 b427 913f
00000250: 9d3d a65d 4dd9 703f 014c 50f9 080e a3bf
00000260: f69c 7dc2 957a 473f 1c25 7ad5 e2e8 abbf
00000270: f60b 1e63 43f5 afbf ec07 b103 10f6 86bf
00000280: 7692 3008 2c7c a83f 6560 e0eb 97a8 b23f
00000290: 6554 399e 0a31 843f 0271 db3e ed1a 8f3f
000002a0: 5520 0e16 22ee ae3f ed79 f4cf eb4e 923f
000002b0: 8180 8fa9 22c3 9cbf 5149 c78b a766 933f
000002c0: 1706 f825 18fd 7cbf f7dd c1cd 1c8f 91bf
000002d0: 1da8 5865 7722 7abf 13bb 730a e17b b0bf
000002e0: c1a8 2817 488a a3bf 986e 9ac1 8dcf 98bf
000002f0: 5d01 bc7d 89fd 96bf 9900 f45a 54c3 a43f
00000300: e653 d905 825e 9abf 9915 c42d 5ed3 643f
00000310: 58d0 c7bc 56e3 743f 8b48 b390 a4ef 993f
00000320: db7b 6ff6 c4cd b3bf 4553 a15d d0b4 77bf
00000330: 2ffb 696a 8ac2 9cbf 030f d7da e9af af3f
00000340: b02a ccd1 e51d 8dbf 0bfd b493 f808 8cbf
00000350: 5896 2bc1 8033 883f 7a6c 7d97 9942 aa3f
00000360: b724 54e3 5d23 a33f c87a 90d5 43dd 7ebf
00000370: b677 9556 9c2c a03f 77b4 557f b598 883f
00000380: 2598 e1b9 58a3 a2bf 1148 8825 4454 9bbf
00000390: 6ede 5db9 ac7a a53f 2439 08df ca60 8dbf
000003a0: b70e 51a7 b1b9 9e3f 30d9 64e9 a47b afbf
000003b0: 6ee6 bf69 ceff 93bf 0553 5611 6254 a23f
000003c0: 16b3 c3d6 29ae af3f 2cb2 6ca1 c582 8d3f
000003d0: a601 6c4a 266e a7bf 4a34 b0dc a443 ba3f
000003e0: ca37 3df3 bb67 97bf 15c5 8c5b a61b 8a3f
000003f0: 18f8 6e0a 0059 973f a3d7 9fc5 998f 8a3f
00000400: 7529 329c 4fcc 8a3f d0d9 f19c 327e 953f
00000410: 16ea 32dc 20d1 afbf b29c cb46 79d8 a03f
00000420: 4621 7290 5bf5 7b3f 237a 318d cc91 82bf
00000430: ca1c f2fd f48e a2bf e9a8 b7d7 ebb4 a8bf
00000440: 7cf5 a948 18cb 67bf abfc ef36 7c4b aebf
00000450: 60aa 99b6 ec4a 793f ebd2 34b9 c7fe 913f
00000460: 66fc 195d 2a85 8abf 87b9 5f20 3aea a1bf
00000470: 8d67 2c0a 5c3f 883f 63b9 a578 eec2 a83f
00000480: 7fb8 a341 d001 afbf d621 6e07 819c a03f
00000490: 49b9 0af3 cb99 773f a270 89d0 5544 943f
000004a0: 33fb 2d6d 644c b03f 9d4c a0a2 e261 51bf
000004b0: 4a30 6649 2f7c 783f 8491 eb1d 8110 933f
000004c0: 6ba0 6747 1d34 9ebf 34d9 9ac7 c55a a0bf
000004d0: a87b 0622 98d0 5e3f 5c9e 20ac 4d69 91bf
000004e0: cd99 93ec c9c5 7d3f 4b06 caca 850b 9e3f
000004f0: 440f fa31 177d 83bf 1cea 8a05 a0fd 883f
00000500: 0996 7baf 7ad0 89bf 9685 c654 59d0 843f
00000510: 155e b5a8 d658 9fbf 4f28 d665 9c13 663f
00000520: f934 1be1 b620 80bf a457 b7fa 433d a03f
00000530: b45d 94dd 98f2 723f e440 6075 aca1 7e3f
00000540: 3735 61dd fbf4 a1bf d4a2 33d6 8ce3 8a3f
00000550: 98f9 d5c0 a5cf 73bf 9c3c 8072 5831 a33f
00000560: 5599 7954 db85 b1bf 069d 59fc d8cf 8fbf
00000570: c90c 1c8b 798c 85bf 7a8b 2764 1122 9ebf
00000580: 424e 45b6 5564 84bf 056d 69d5 e660 a13f
00000590: 623e c373 d819 50bf 87dd 399d 230a a5bf
000005a0: 9b7f 2350 1793 8c3f d35b be16 0199 9abf
000005b0: 5bae 10ff 73c9 aa3f 024e d730 aac0 50bf
000005c0: e31d 0a1a cbfe 783f 83c3 09b0 f226 a43f
000005d0: 45c4 89e6 62cb 9c3f 18ab d5d7 a994 953f
000005e0: 8711 bc47 a490 a33f 41c2 5c67 ccfb 813f
000005f0: 8967 736f ba05 9cbf 854f e7cc ef0d a53f
00000600: b479 3b6d 29e2 643f ef76 f680 0b9a b13f
00000610: 87c8 a0d3 6217 76bf 0c95 9bce 1c64 90bf
00000620: 2f99 cca3 83e2 7d3f 1027 aebb 612e 88bf
00000630: 75e6 cd47 75d7 9a3f be22 a08c 373d 793f
00000640: 7df1 4b66 3a0c 8cbf 79ef 61f9 ef96 913f
00000650: 3da6 51b6 8df7 66bf 362e 3460 0476 b5bf
00000660: 19e3 46e3 7dbb a53f f9e6 8eca 4e68 933f
00000670: 94d6 0654 aa51 a63f 38bc 2203 0957 963f
00000680: 31d0 e5bb 087b 8f3f 0a0a 0e2d ff86 aabf
00000690: 94c5 8a73 921d 7abf 9983 4f70 da86 b5bf
000006a0: 0df4 c518 a601 b63f 052a a904 c6e6 8b3f
000006b0: d5cb 6e50 4e4d 81bf 88d3 ea84 2916 a7bf
000006c0: 8f1d 7259 b0b8 a23f 8715 270a 0196 843f
000006d0: e326 e400 41e3 983f 7222 5c64 d8b1 a7bf
000006e0: 407c b4ce 2ae0 553f da73 2dec c8d7 99bf
000006f0: 059c 9eec 1bfd ab3f b8d3 bc3c 47f1 94bf
00000700: 67bb 21b0 2b59 9e3f fb3d f8a2 4433 983f
00000710: d88c f702 381a a2bf 4400 a65e 3163 8c3f
00000720: 8bf5 bba2 dc6b ab3f dd71 38c8 98b4 a43f
00000730: e28c bfc7 87eb 563f f82e a54c 3d39 99bf
00000740: bdf0 7bf3 7295 97bf dc8e f72d 3373 abbf
00000750: c2b8 f0fe 319e 953f a338 a972 a65d 843f
00000760: a578 4d7f 8983 9ebf 83b2 39cf b629 a23f
00000770: 2c8f 3e4b 6e40 653f 6817 ba1f 4b34 b3bf
00000780: 5a9d a928 c490 753f 8908 cf5e 7d34 af3f
00000790: 6b5e 7df8 a24e a73f ff7e 2c54 ec87 9ebf
000007a0: 4923 b905 776a a33f d16a fdf1 fa03 a33f
000007b0: d77b c669 8271 883f 7a75 408d 8a74 97bf
000007c0: dd6a 7a55 02d5 873f 176f 8249 0121 9cbf
000007d0: 7929 89a3 94ea 95bf 3f99 2374 2406 b53f
000007e0: f18f 0f31 7fbc 603f 82bb 8bfb a63d 98bf
000007f0: f998 bf5d ffdb 853f 6a59 086f 4393 3c3f

linear2.bias f8 [256]
0.0017106764839566642 -0.0015168505883111875 -0.008599895067724331 0.04104386763145409 -0.020916641282778804 0.019133977643824355 0.02961700244548219 -0.005452006432130785
-0.02593461752298861 -0.0535961901360541 -0.01608496455559898 0.0036859682756299784 -0.0021782721045343414 0.0013741381650402124 0.01689466067208759 -0.004879526532569624
0.007574856508915915 0.03229669620946249 0.02892579116813294 -0.0012010341311706652 0.005872938853873619 0.010079346804496136 -0.0052114750130055065 0.0489363969560798
-0.021254462551657347 -0.02712541239894059 -0.03723304380799429 0.035719238699669704 -0.006936916328976525 -0.022184587035388104 0.021715873701915737 0.012181726198028169
0.025847439953208543 -0.015471327680593304 0.014913912568609522 -0.011973734127680623 -0.012248573406509184 0.007494127088964595 0.011238729886820774 0.023717650446231867
0.014419681522008907 -0.03618867218595657 0.012861566314753029 0.011080288217864439 0.007181314880336381 0.027423913475810545 -0.018774789924363995 -0.022949826818383704
-0.03228368778624179 -0.019943125673815603 0.0074202816503823755 -0.017711555831773643 -0.006117937617425048 0.024382941289113648 -0.001958360582149192 0.017344198814150308
-0.011676536510622886 -0.008212149559001288 -0.013562697926954484 0.007859759176613195 -0.057388238412196355 0.010510582794758035 0.04388347214353801 -0.0037161646443337865
0.00538121237633182 -0.03773200878810525 -0.029567590907048323 -0.022445019818240878 -0.017025380636541455 -0.02000841001809748 -0.0020199209931340742 -0.020167947941102063
0.011008118733799555 0.022009766871033315 0.04296468970317549 -0.009613565241968556 -0.026408552494637597 0.01861692638177479 0.051026570250383076 -0.00828834066643647
-0.01817133011524012 -0.010932575014562348 0.0018557707180867297 -0.0342573872446136 -0.005153270523697681 0.02335863093156968 0.005969056464657677 0.014413562301797883
0.004847690021431829 -0.0063284047363676744 0.03702294080026274 0.015432625066604524 0.03090993842318036 0.01517705811851193 -0.010275295888749708 -0.008561574574896341
0.0393702318517295 -0.01831571081819866 0.0172098174307192 -0.0012322968552762057 -0.06635767334868706 -0.012521391328250444 -0.052466724700114264 -0.010730610969952458
-0.011171683237699204 0.0006120406515636663 -0.009288556761577593 -0.039069450647389724 0.02765178047896828 -0.015901077759746283 0.011369495911614864 0.021691736850928924
0.0046117734506594356 -0.016416147779770175 0.01745555858637411 -0.0016959761046041486 0.0008764254785172364 0.011622207032032887 0.0027861379930450817 -0.030640111903024667
0.00888635153345228 0.027695326923260457 0.01564289055349553 0.02747086780397262 0.0031737399589738327 0.00708198488565418 -0.030252546212014498 0.00698665977626537
-0.007878107477197008 0.016362309437632415 0.029899624632486622 0.011542723740002507 0.008824382613342584 -0.008048181884547463 0.013778802186654723 0.005563025851843845
0.004721752907087075 -0.040874543949353165 -0.02592454550742988 -0.007541385796628516 0.006684207267600862 -0.011954144835326115 0.006777852245367144 0.02654960373049355
-0.017233749465516084 -0.00585262155011911 0.00044016068957775545 0.04616122456814273 -0.026301401687584724 0.030380679219409946 -0.0131182959529268 -0.04133665619813429
0.004124712023824869 -0.00485540367939993 0.010315305921036926 -0.000702587618665686 0.023849540001606086 0.005633937267252983 0.021066382613438947 0.010888572724479392
-0.031210492828685456 0.011626888504377517 -0.019507305804987527 0.03268007024047781 -0.0012451929305965777 0.04611471601025278 0.03167512064160052 -0.01921790180941675
-0.03675139124442834 -0.011560963115703385 0.0015034634418831295 0.011214044350224562 0.00245458367293505 0.03501786221753568 0.022416422827475024 0.03343235201412795
-0.05619197852312708 -0.0030367823406265123 -0.01586735809766235 0.0022032953412626966 0.020962723733612167 0.0646774330665799 -0.034841994058161393 0.00842238742514356
-0.0017303198345472834 0.009114807971551512 0.022394632429108385 -0.03441358359018459 -0.006989408424405307 0.03512540359201299 -0.013947278372112374 0.00011794321879406326
-0.009318990046949194 0.023819620310022497 0.0232592413931158 0.001569654096726955 0.025214659557960158 0.010940352484390804 0.050132312675053727 0.04260565340996128
0.00962039411846475 -0.012651881278408734 0.024177512711930638 -0.008628834300771158 -0.02671005784520149 -0.008777758742010618 -0.03436534030127731 -0.003044985541029373
-0.00906398396261264 -0.007741248037913388 -0.004154544093939791 0.0040008309441568555 0.027523089245087614 -0.0034894975469140317 -0.017982890221501808 0.009135974133423576
0.028725700231607334 -0.029314623392894645 0.040723618090357495 -0.01896609639803101 0.0033961517090515332 0.043588119086879505 0.031428835089062704 -0.03423720891820073
-0.020548764763130674 -0.04493186951822822 -0.03999418848470605 -0.024594907865370583 0.026312116764462195 0.04589657891013188 0.027210799165908954 0.006642709286518948
0.00012089883329188274 0.03099933635823276 0.01695241205313063 -0.013959100784617843 0.004711797359236207 -0.0093170631534259 0.030340658173807454 0.059602874316041
-0.0025454125016254265 0.02770756135716617 0.00976046940688387 0.02543925269893677 0.023117970401935396 0.040048618995961835 0.006387038681421004 0.0023302570994684813
-0.02000789283680203 0.024419901669371625 -0.01058826383842723 -0.03718113434179598 0.016031040945175126 0.01374017996439704 -0.015201874900849555 -0.002458576400949874
00000000: d04a 5ee3 1807 5c3f ed9b dcea 21da 58bf
00000010: 55ee 8460 d29c 81bf 935d 5baa b303 a53f
00000020: 3dbd 0109 2c6b 95bf b1f6 e380 db97 933f
00000030: 2ab6 a263 eb53 9e3f c065 2dd5 d754 76bf
00000040: f6cb 61b8 9a8e 9abf 702b a6b7 f570 abbf
00000050: cdfb e4b2 9378 90bf 4865 5526 0932 6e3f
00000060: d0a8 6cee 2ad8 61bf b67a a89e 8d83 563f
00000070: 2929 417c d54c 913f 02a1 09ee 8dfc 73bf
00000080: b19a a40f d006 7f3f 2c1b fa4b 3189 a03f
00000090: 13ee 4ffc b89e 9d3f d2fd 2494 80ad 53bf
000000a0: f0d2 f004 390e 783f 6671 1f07 7ba4 843f
000000b0: 409e eaab a058 75bf f557 0501 310e a93f
000000c0: 0cb5 36d6 bac3 95bf f86a 939c c3c6 9bbf
000000d0: 0ec4 f8a2 3510 a3bf c92f 1bc4 ca49 a23f
000000e0: fde6 494c e269 7cbf 8d45 2b6f 8eb7 96bf
000000f0: 1e49 6a9d af3c 963f 89ec 089d bbf2 883f
00000100: d12d 2355 c077 9a3f 6c8f 4f73 6eaf 8fbf
00000110: 0091 e675 2f8b 8e3f ec43 ea63 af85 88bf
00000120: 77ff a0b1 c715 89bf 1790 256c 29b2 7e3f
00000130: d9f1 7fca 5404 873f 61a2 0494 7049 983f
00000140: 4534 72e4 1088 8d3f 6177 0c57 5287 a2bf
00000150: 55dd 9335 2a57 8a3f fe35 351c 43b1 863f
00000160: 2069 da88 276a 7d3f 461b 07ae 0315 9c3f
00000170: 428f dbd2 b239 93bf 9108 89ce 2880 97bf
00000180: ffec 78ce 7c87 a0bf bb3b 3282 f86b 94bf
00000190: 327e 3fb0 ba64 7e3f e127 3c64 fa22 92bf
000001a0: 63df c55f 1f0f 79bf 3a0a ab7d d7f7 983f
000001b0: 5670 eed4 fa0a 60bf c877 ba7a adc2 913f
000001c0: 9ca5 8c33 dee9 87bf 7e42 490e 88d1 80bf
000001d0: 6899 5580 c2c6 8bbf 83a4 f104 c718 803f
000001e0: 1695 4fbe fd61 adbf 844f ec8a 9286 853f
000001f0: 2a02 62fb e477 a63f 1b9a a5b3 5c71 6ebf
00000200: 7cf1 b432 9c0a 763f 63bc 831f 9c51 a3bf
00000210: 867e de6f f746 9ebf 4146 4fc8 d3fb 96bf
00000220: 3dc2 24f4 196f 91bf fad4 b0aa 157d 94bf
00000230: eb78 64d3 148c 60bf b47d 5613 e8a6 94bf
00000240: ed02 9eaf 6c8b 863f 485c 9d73 ba89 963f
00000250: c4db 50c2 77ff a53f c56b 7fe2 46b0 83bf
00000260: 0459 32f5 d70a 9bbf 3ad8 d8c7 5010 933f
00000270: 75a6 e794 2720 aa3f 82b9 cd40 7af9 80bf
00000280: 6b73 4752 819b 92bf 7e5b 3061 d163 86bf
00000290: e571 c1a2 aa67 5e3f 135b b92b 2f8a a1bf
000002a0: 3d18 de85 981b 75bf 8ac1 b82f 53eb 973f
000002b0: c4e1 db64 0273 783f 3001 a495 db84 8d3f
000002c0: 0fb0 a6e1 2bdb 733f 248b 0e36 d0eb 79bf
000002d0: e7b3 e0bf abf4 a23f 5bb6 9edf 239b 8f3f
000002e0: 0382 98da daa6 9f3f 58e3 2542 2615 8f3f
000002f0: 6327 64de 360b 85bf f05b 6916 bb88 81bf
00000300: 606d 7ac4 5528 a43f 505e de8b 5ac1 92bf
00000310: 50e9 234c 739f 913f 04df 4fac a030 54bf
00000320: 020b df04 d1fc b0bf 6ec2 0ab2 d0a4 89bf
00000330: 2032 6e25 ebdc aabf d3d3 7439 eef9 85bf
00000340: ad71 2df1 2de1 86bf c96d 884a 2b0e 443f
00000350: 46e5 24fc e005 83bf 4b40 9b39 e900 a4bf
00000360: 1357 5593 bf50 9c3f a90b cc43 5f48 90bf
00000370: 8a2d e6e8 e348 873f 9703 79d1 5b36 963f
00000380: fbb2 5a82 cbe3 723f fd95 5c07 65cf 90bf
00000390: 932c 0cb5 dedf 913f 0952 dc79 70c9 5bbf
000003a0: e021 4162 fdb7 4c3f 091f e138 62cd 873f
000003b0: 3921 fe71 f4d2 663f 0cef 461a 1f60 9fbf
000003c0: 7649 bce9 0133 823f f7ba 8ced 295c 9c3f
000003d0: fb61 5e9d b004 903f d042 3ebb 5221 9c3f
000003e0: d0ba 8daa d0ff 693f a62b 98d7 ff01 7d3f
000003f0: 4dc3 6702 86fa 9ebf 2719 f533 0b9e 7c3f
00000400: 9560 c0af 6522 80bf 86c8 afff 47c1 903f
00000410: 1d3a d6d7 019e 9e3f efb5 c227 b6a3 873f
00000420: 2c84 da95 8412 823f f720 e4af 907b 80bf
00000430: fe6a 2886 0f38 8c3f 6088 9b61 41c9 763f
00000440: e83c 0de5 1d57 733f bcb5 001b 82ed a4bf
00000450: abe8 78cc f68b 9abf 5601 cf55 b7e3 7ebf
00000460: 6712 d339 e660 7b3f d179 f428 6a7b 88bf
00000470: c00f b2db 17c3 7b3f 4517 fabe d12f 9b3f
00000480: ae0d 5e59 b9a5 91bf f540 7522 ebf8 77bf
00000490: 52d8 47c4 abd8 3c3f ac1a baab 71a2 a73f
000004a0: 133a 5930 c1ee 9abf 4de5 b5de 1c1c 9f3f
000004b0: 83cc c6e0 c3dd 8abf 7d74 fe04 142a a5bf
000004c0: 49c4 f6f3 12e5 703f dcbe 3080 42e3 73bf
000004d0: 49f9 a1ec 3020 853f 438f 206c bb05 47bf
000004e0: ba7f 5389 036c 983f 4915 f884 9c13 773f
000004f0: fc9d 7a01 6d92 953f f898 037e bf4c 863f
00000500: 5709 f7b7 a4f5 9fbf 7258 0b8f d6cf 873f
00000510: 09aa dc21 b9f9 93bf 30e2 d331 71bb a03f
00000520: 7efc 80ba b766 54bf d5b8 411a 599c a73f
00000530: 734b 81ae b837 a03f 04a5 138f dbad 93bf
00000540: 5963 f40e 14d1 a2bf e80a f033 46ad 87bf
00000550: 1a58 1294 fba1 583f c7bd eb8d 63f7 863f
00000560: fdb7 3793 a21b 643f a213 007a dced a13f
00000570: 00cf bfab 54f4 963f 3cde 0e95 0b1e a13f
00000580: c1d5 1bec 31c5 acbf ba65 d11a 98e0 68bf
00000590: 98dc 6960 883f 90bf a993 e42d a50c 623f
000005a0: 9ad9 7b93 4077 953f 9768 cf43 b38e b03f
000005b0: 96b3 0352 cfd6 a1bf 3ea3 5cb4 c13f 813f
000005c0: b2cb 76c6 7c59 5cbf 8254 2dd1 c8aa 823f
000005d0: f04b 8e57 9eee 963f d8b2 1d40 a89e a1bf
000005e0: f28b 9e09 eda0 7cbf 7f7c 5ff7 f4fb a13f
000005f0: efba cf03 6490 8cbf 7ef4 ec11 09eb 1e3f
00000600: e0fe ddab d515 83bf 0151 f0a8 2b64 983f
00000610: 2feb 7344 45d1 973f 5900 bc40 9bb7 593f
00000620: d28f b928 dfd1 993f 2772 0441 e567 863f
00000630: 250c d346 f1aa a93f 447e 0a80 68d0 a53f
00000640: 9451 e870 dbb3 833f aad0 96c2 3ae9 89bf
00000650: 10e1 9569 fdc1 983f 5fcd fe88 feab 81bf
00000660: 7579 ada3 e159 9bbf 9139 d5d5 12fa 81bf
00000670: 9977 6b79 5598 a1bf ddb0 182a ccf1 68bf
00000680: 38f1 8655 2390 82bf 51f1 7272 49b5 7fbf
00000690: 8a51 36f0 5a04 71bf 2add fde0 2c63 703f
000006a0: 5f29 c540 032f 9c3f 96b0 fdba 0196 6cbf
000006b0: 053e 8e55 1b6a 92bf 7414 f6b0 e1b5 823f
000006c0: d7a3 321c 456a 9d3f b072 1113 a704 9ebf
000006d0: 0dea bedf b9d9 a43f 579f 0c2f d96b 93bf
000006e0: 5164 b910 3fd2 6b3f 6bd1 f193 2e51 a63f
000006f0: f2c1 b7b5 7017 a03f d450 3819 8a87 a1bf
00000700: d2fb 8542 bc0a 95bf 0b03 425c 4f01 a7bf
00000710: 72cc 2447 1e7a a4bf a937 b853 682f 99bf
00000720: 3bb4 f743 90f1 9a3f 50a8 d5a2 c17f a73f
00000730: 3efa 0fd2 25dd 9b3f 4469 47b2 6235 7b3f
00000740: 74b6 f423 62b1 1f3f 6edd 6c3f 4abe 9f3f
00000750: 8d11 6d1d f95b 913f 0fe0 cfca 9696 8cbf
00000760: 7845 0379 ad4c 733f 2152 4f0c d314 83bf
00000770: b6e9 611a 9f11 9f3f 98b7 de97 4484 ae3f
00000780: f2c0 60ee 1dda 64bf ae15 86f7 5e5f 9c3f
00000790: a95d 2b07 4cfd 833f e1a6 8159 bf0c 9a3f
000007a0: 9a09 4ebb 3cac 973f 96dc aca9 4081 a43f
000007b0: 9470 14a4 4b29 7a3f 6957 1241 e716 633f
000007c0: 9c70 95f5 f27c 94bf 8d7b 2adc 8701 993f
000007d0: af7c 42b7 4caf 85bf 9769 0dd8 6709 a3bf
000007e0: f74a 52f2 706a 903f 08b7 b4bc cf23 8c3f
000007f0: 7ad7 4b1c 2922 8fbf 7fd7 9327 0224 64bf
