10_300_32_10.pth (torch, 553151 bytes, 6 tensors)

linear1.weight f8 [256, 10]
00000000: 69fc 74ca 577e bebf ecef 040e 262b c13f
00000010: cf09 497b a917 863f 456e 377d 44fd b03f
00000020: 5ad2 c188 2b82 adbf 0330 ccd2 0d98 c83f
00000030: 0dfa 6499 b9de c23f 1015 18e6 cd2c c6bf
00000040: f716 1c66 2b78 c0bf 1c91 665b 7eba ad3f
00000050: 6e65 4fda a351 b2bf 3821 382f e705 bbbf
00000060: f2f8 6847 57db c63f 0bae f3c5 3823 d33f
00000070: e7c4 1d97 3c48 a8bf df2b 58e8 90de d0bf
00000080: ba65 d6ce c29a c4bf 1131 b583 ac38 d3bf
00000090: 237c 1c89 5876 d1bf bd56 41fc 3b37 bc3f
000000a0: df86 81b6 c63d b53f 562e 0cb5 1b7c c1bf
000000b0: 4f36 1508 56aa c2bf c17e 926f 4aea b0bf
000000c0: 1c70 ff59 cca8 aa3f 5424 fb7c b74f 8abf
000000d0: ef01 3caa 4d41 b3bf 4817 7b00 4fda c13f
000000e0: 86ac fbf0 02b9 c03f 1392 b598 679c a5bf
000000f0: 52ae 5cd0 fabc bd3f 2ce3 e844 283a d2bf
00000100: 7fff 8b2b 8121 d03f 2af9 9c91 3238 b53f
00000110: 00cf ebd5 9ec6 a23f 64c1 33b9 8281 cbbf
00000120: f46d 8898 cc83 cabf d15b 2110 c025 a53f
00000130: 953d 8947 ccf7 be3f e96c d744 1f71 b6bf
00000140: 771a 705e 336a c13f 6ee2 57e9 065e a73f
00000150: b285 ad6e 5585 973f 9186 eb3b c359 933f
00000160: d954 187d 63b3 903f 236c 44d9 492c c73f
00000170: b2bc f334 b162 c03f c050 8f3c 46e3 ccbf
00000180: 6e1e 4ece 2a89 a13f 9705 1c3c 51da b1bf
00000190: 2d4c 4b40 74b4 b9bf d20f 024a d03d a33f
000001a0: ecf8 7a96 95cf 8b3f ddff 0220 67ee c3bf
000001b0: a447 2793 272c c93f 29eb be39 3651 763f
000001c0: b59f 6bb8 2db2 b13f 3439 5775 178c c03f
000001d0: 1f0c 80a6 d160 c0bf 94aa c849 f6c5 b5bf
000001e0: d0a0 d1bc 32e7 b2bf 5486 1b8e 0dae 64bf
000001f0: 96c0 f693 ce71 b13f 1647 e12f 6dae b33f
00000200: a7f8 5998 9088 99bf 9421 d9e2 927b b43f
00000210: 0446 4924 70b7 adbf 2cf7 435a 2d57 adbf
00000220: e356 9992 92bc af3f 9105 0e71 e8e1 a4bf
00000230: 04ac c19c 2d92 d4bf e7d2 8e20 d99c d3bf
00000240: 9659 a86c aa0c c43f cba0 f214 dd7b c53f
00000250: 5665 f0c9 5acc ca3f 7b3d 0182 f231 bfbf
00000260: 74eb b28e 6ff0 c13f 3a09 88b3 27ca ca3f
00000270: 3a49 3ea4 f142 c43f 21e1 2978 11c7 723f
00000280: b14f 89f4 0f01 c5bf 6f0c 2e0a 2a91 923f
00000290: a31e 6a9f 8a5f b2bf a74d cce6 38e2 bcbf
000002a0: ac12 92c5 3564 c03f cbbf 5889 bd80 bb3f
000002b0: 1bd9 75c7 d402 93bf c1a1 722b dbb4 91bf
000002c0: e690 c2d0 6c82 983f 2735 af5e b1dc a3bf
000002d0: e4a8 331f 393c d03f a181 027c 3543 81bf
000002e0: 42da 2e86 69b3 cdbf 0100 ee42 5b48 283f
000002f0: ab70 b2f9 c80b a63f c7a7 4b0b 81bd b2bf
00000300: 713d f30e 04c2 c53f 753a e182 c60b d13f
00000310: 6f11 eccf 66b4 c53f 90f0 f89f 9e60 be3f
00000320: 9003 7521 9a67 c53f 13c2 f759 3232 ccbf
00000330: 734e 81c6 a97e b73f 07cd 3377 f641 c43f
00000340: 39f8 adeb 8b50 c5bf 8435 f08c 3cc4 d03f
00000350: 55a4 2fab 1419 c33f 0c76 7160 fd65 c7bf
00000360: f638 8ec5 bf5f cebf 9edd 63d7 1a02 cbbf
00000370: b16c a20b 2e57 a3bf da5c 563a fda5 a7bf
00000380: 9c5d aaa5 26f2 9fbf 4bfa 2112 f36d 99bf
00000390: 185a d0b1 fce2 453f 8065 3083 41cc a43f
000003a0: c7b3 78af 5a3e 6b3f 7e48 4921 49a1 b53f
000003b0: 2d3f 23e1 e211 b7bf e581 878f f735 a9bf
000003c0: c004 b89e af8d c33f d665 bf7a bdc9 8f3f
000003d0: 47c4 ea10 781e b9bf e417 6f92 b8b8 c83f
000003e0: ded2 eac3 9d92 bdbf 067a e7e6 62f1 873f
000003f0: 8414 050a ec74 c53f 64f3 d6f4 791d bebf
00000400: d4ce d675 cd9b 8abf 7639 bc06 085d 92bf
00000410: 018c 26ef 6024 abbf ed6e d7c4 2ede c23f
00000420: 4120 337b ebf3 9a3f 957a c14a ba9c a93f
00000430: c406 228a 16ae cbbf 5a37 3934 4f44 cfbf
00000440: a549 b773 b35d 73bf d887 fbd8 0d94 a93f
00000450: 20c2 7664 2bbc b83f 69e4 61b5 ce0d bf3f
00000460: d910 fc12 3f82 d2bf b8cb 9dd8 53c0 c93f
00000470: 2c28 e46a f252 b63f f83a a15a 4987 c23f
00000480: b9f0 6eee f2ba c0bf 25d4 3a6d 99b7 d4bf
00000490: 89be 32a9 6f61 d4bf 8249 c154 aebe d23f
000004a0: 5c65 30f7 2040 d03f 0e04 5def e8a3 a2bf
000004b0: b189 8398 a974 b5bf 9a0a 9804 d4ef cabf
000004c0: 44ec 33be 0447 d03f a99f 6d96 60be c7bf
000004d0: b5be 01b4 b15b cc3f b160 69c2 d2a3 c23f
000004e0: df28 4c01 a5f7 ccbf fbe0 8e97 55e1 a1bf
000004f0: b00c 7988 1f35 c63f 853a b057 787c ccbf
00000500: 2dd9 fae1 f04d cbbf 9508 541a 82d6 c4bf
00000510: 987b 6176 7b46 c8bf 9d09 27cd 2145 c73f
00000520: 0a62 ec2b 302d c43f 8f06 0878 818e c9bf
00000530: f6db c9da 5195 b73f 5ca6 6a37 6287 cc3f
00000540: 2e97 3afd 2346 c93f cc79 9e49 546e bb3f
00000550: acc4 6268 80c0 c6bf 3ead d4d6 5d93 c33f
00000560: 9c82 83a4 5e03 cb3f bdee 2ba6 96cf b8bf
00000570: 3e98 ee5e 12de af3f 6705 8be6 735d a1bf
00000580: 2c4b f193 aee4 c9bf 435a c5ce 19eb b33f
00000590: 59c1 d66c 6219 c33f 2f46 1ca7 f7be 97bf
000005a0: efa6 9b65 86a3 cabf 4f46 cfe6 91fc 7cbf
000005b0: fe09 6092 f682 8ebf 59fb 2e8d 956a b23f
000005c0: daae ba76 f886 973f 1bac 7825 69cc c03f
000005d0: 2fe8 6955 0629 b23f 72d6 aec7 2260 d03f
000005e0: c4b0 1492 0e05 a63f 68e4 d7a7 6bb0 bf3f
000005f0: 9f73 3acb a0d8 b13f 786f 5bdd 7bf5 bf3f
00000600: 7535 2748 68d7 ccbf 1c6a c786 b215 c53f
00000610: 50b5 fda0 ae3d bbbf c1a0 4f50 0331 9a3f
00000620: 6a4b 27c4 d9f9 d03f 3f66 3695 cb21 c53f
00000630: 9f53 5b77 8731 d3bf 0fe4 96c6 b7d8 c9bf
00000640: cf43 52df 6abd a5bf 9de3 0753 5ed5 b13f
00000650: 7c9a d90b 0dc0 853f d8b5 6015 f880 b13f
00000660: 1b16 2554 23c2 b33f ed6c 9293 45e8 4dbf
00000670: dc66 587f 9ac3 953f 9701 b8a1 581b c0bf
00000680: 1ba6 5720 b916 c03f c944 e435 9b6c b3bf
00000690: d83e 9e4d 925b ac3f 2e34 dfe9 8301 d0bf
000006a0: 111b 6a4d 67b4 ca3f 89f9 3486 2ce0 d1bf
000006b0: ca2a b5a8 96e2 a03f e318 261d 3a53 cabf
000006c0: 5e08 88c4 2083 c83f 5fde 81e2 5228 bb3f
000006d0: a435 1b5a 7eef b53f a7b8 d47b bc26 c0bf
000006e0: bbfd 0ea3 e12e a1bf e80a a4a3 0fcf c1bf
000006f0: 9a6b 057a 4a3c c0bf aa4a e216 a388 b6bf
00000700: 49e3 0589 143a c33f 083f 9501 5f22 af3f
00000710: 6df3 ccf5 b0b2 c13f 2160 3d10 820a b53f
00000720: e6cc 5e4a 42b8 c1bf 855d 4699 ce3f a0bf
00000730: bb8f c38e 4670 cfbf 7d1f 1809 3071 b33f
00000740: 00dc 902e b9fa c5bf efc2 484d 53b0 d33f
00000750: a2bf ebde 1d82 ccbf 2cd2 4980 48c3 c3bf
00000760: 9084 0333 7600 d13f 4f2f cfb9 e22c cdbf
00000770: a11b d4aa 1b07 c23f 8b7b e178 4d3f adbf
00000780: 334b fa5c 1303 c93f b1c7 1df8 96b5 cb3f
00000790: 61ec 7986 172e cc3f 46d5 928f e183 b63f
000007a0: dda6 a58d e1db b5bf 8f0f 6113 1115 c73f
000007b0: c889 8b3b 2e97 c63f 90c6 ff40 bbef c83f
000007c0: a063 8c1e 23e3 d03f 8a5c c660 63ca 9a3f
000007d0: 4b66 d6f2 da1f b4bf ace1 f2f7 b2b4 b73f
000007e0: 9f2b 3602 0f06 bdbf a607 2dee 56f9 c33f
000007f0: 2413 a7f6 752f 943f a333 a244 4df0 3e3f
-0.1191153401641586 0.13412929234061666 0.010787319254750209 0.06636455590290165 -0.05763374370954884 0.19214031975604948 0.1474220274921695 -0.1732423184877594
-0.12866728292299687 0.05806345811586963 -0.07155822830045164 -0.10555882361234559 0.17856875407046108 0.29902476626622904 -0.0474261221378443 -0.2635843533504935
-0.16097292994963458 -0.3003340994080342 -0.27284825696728116 0.11021780880522676 0.08297388034545915 -0.13659998264516798 -0.14582324404402633 -0.06607499336177637
0.05206907843214045 -0.01284736013566793 -0.07521520048249618 0.13947474978902563 0.13064610258820525 -0.0422088979637786 0.11616485201801055 -0.2847996399828385
0.2520449567091347 0.08288875632294848 0.03667160378782164 -0.21488985102724734 -0.20714719245812285 0.0413036365213696 0.12096859690176694 -0.08766360693646259
0.13605348693109295 0.04563924406460705 0.022969565277326694 0.018897104770877752 0.016309313306995008 0.1810390768885962 0.12801184735824261 -0.22568586308501004
0.03424962776540218 -0.06973750798717614 -0.10040976113968787 0.0375809755651343 0.013579529433056035 -0.15571297705719092 0.19665999112345134 0.005448543375616657
0.06912503960086165 0.1292752573921888 -0.12795467977420658 -0.08505191136706919 -0.07384030446849299 -0.0025244011638825645 0.06814280617141075 0.07688028735108463
-0.024935015963358478 0.08001058615002982 -0.05804014628359869 -0.0573057339370123 0.06198556937731128 -0.04078604106963291 -0.3214220076394556 -0.3064482515285775
0.15663652711436943 0.1678425171169294 0.2093614088087558 -0.12185588525720974 0.14015001743049604 0.20929428354436103 0.1582929660767805 0.004584377517510314
-0.16409491958859015 0.018131882544832608 -0.07177034751850413 -0.11282687792509326 0.12805816790582492 0.10743317225637765 -0.018565487550824416 -0.017291473891107637
0.023935032121372844 -0.03879312783065308 0.2536757282929456 -0.008428972098329992 -0.23203772594361466 0.00018526186019229843 0.04305866287288159 -0.07320410276193377
0.16998339395511722 0.26634371548872277 0.16956792023132602 0.11866179853035619 0.16722418435713537 -0.22028188126525147 0.09177647682491301 0.15826302357127295
-0.16652058608809897 0.26197732699878196 0.1492029033536563 -0.1827999802507495 -0.23729703089015403 -0.21100173489660973 -0.03777450458547927 -0.04618827187658221
-0.031197170125407334 -0.024833486539586763 0.000667928110149432 0.04062084890774553 0.0033256312560951714 0.084492273928193 -0.09011667248273332 -0.04923986079279866
0.15276141405050758 0.015521507557354857 -0.09812117016805742 0.19313723707290287 -0.11551843674790116 0.011690876647603165 0.16763067712068758 -0.11763727405100394
-0.012992482336677304 -0.017933011447035928 -0.05301192206686523 0.14740547763255255 0.026321105379594426 0.050023862481556915 -0.21625024552127148 -0.24427213716483714
-0.004728032097278155 0.04995768808090845 0.09662123873454975 0.1213044350460152 -0.2891996083637998 0.20118187024089962 0.08720316991471638 0.14475361752780436
-0.13070522920850694 -0.3237060133645307 -0.318447032196652 0.29288824345453446 0.25391410960727057 -0.03640678331294832 -0.08381137822610786 -0.21044397568046663
0.25433462690825004 -0.18549735398414427 0.22154828347583125 0.14562448971515132 -0.22630751193384577 -0.03492228961062157 0.17349619067872402 -0.22254852563533603
-0.2133160689751973 -0.16279627118644116 -0.1896509483367168 0.18179724232875297 0.1576290335149369 -0.19966142998605504 0.09212218848720952 0.2228815813626167
0.19745302071276555 0.10715224072780599 -0.17774968239749478 0.15293477048667542 0.21104033501525954 -0.0969175487224971 0.062241148079281036 -0.03391611279722433
-0.20229131912000164 0.07780610368841061 0.14921217264555756 -0.0231894202943918 -0.20811538659409431 -0.007076806953550354 -0.014898229925170089 0.07193884560454701
0.022975809332520615 0.13123812036187207 0.07093848786635769 0.25586766720093757 0.04300733121121561 0.12378571365106128 0.06971173249844619 0.12483953623035215
-0.2253237106619214 0.16472465115551038 -0.10640994482465271 0.025577594544217378 0.26524967342009254 0.16509384904638755 -0.2998980203240595 -0.20192620465039154
-0.04246076561060585 0.06966199423903992 0.010620214389928544 0.06837416192930534 0.07718106083219604 -0.0009126987198614635 0.021253980658093904 -0.12583454033302807
0.12569345549791042 -0.07587595048632347 0.05538613507735385 -0.250092485800283 0.20863047866824805 -0.2793074904074265 0.03297873315258 -0.2056648866966447
0.19150170894869495 0.10608404188121189 0.08568563175068405 -0.12618213697846167 -0.03356080165348937 -0.13913150301239985 -0.1268399329954633 -0.08802241619768361
0.15020996752334728 0.060809105818973974 0.1382657242010298 0.0821915902755568 -0.1384356368194865 -0.03173680897742329 -0.24561387987989555 0.07594585630442725
-0.17171396993373378 0.3076370482186083 -0.2227208460312769 -0.15439707054214702 0.26565318090258305 -0.22793230126114358 0.14084192124593378 -0.05712358570666883
0.19540636100699657 0.21647917857222645 0.22015661302779946 0.08794984584058793 -0.08538636882954216 0.18033040472266434 0.1764886656520288 0.19481602357659655
0.2638633535694286 0.026162674695652068 -0.07861107281350958 0.09260099938808847 -0.1133736973189756 0.15604673986132162 0.019712298564417044 0.00047208677700255104

linear1.bias f8 [256]
00000000: 5f38 8c61 62d3 c8bf 824e 13ac f749 c93f
00000010: 5677 ee49 e2bb c3bf 845d 6b5a 4a56 af3f
00000020: 04a9 5069 912e ccbf 97ae ff38 9881 77bf
00000030: 1f6d 1c42 756a a3bf 7c3a d179 6c27 d1bf
00000040: 7e2d b58a a556 b23f 9b22 d3d1 018f c93f
00000050: 51ff 98ff 199b ce3f 7aa2 5621 06b6 b43f
00000060: 2e7a 9753 2e6d c1bf 3f63 a901 e755 b53f
00000070: e27f 79b1 d033 c63f 9784 78dc 21c9 b3bf
00000080: a195 774d 9cc0 cd3f 8277 b252 9f1e 97bf
00000090: 57f0 98ee 7ef6 bb3f 7524 5f3f 7f41 c13f
000000a0: e4d7 40b1 572f b4bf 4b74 510c 6df4 b1bf
000000b0: 3020 a49c 839f c3bf 43e8 bb04 c810 d1bf
000000c0: 13f3 2233 6ae2 c13f f8d6 3c00 fe6f 97bf
000000d0: 7500 37b9 9c42 aabf 4bc8 9789 6c3c d13f
000000e0: dadc b5ae a1e2 a63f a805 2f36 2b0d 823f
000000f0: 5fa7 53cd 431b d1bf 7478 44e6 3f13 c93f
00000100: 65f4 28ef f43b b33f 866d 8352 6a67 9a3f
00000110: c5b3 a44f 55c4 993f 2735 3865 329c a9bf
00000120: d06c 1411 1a4b c73f 7369 ff9b b030 b9bf
00000130: 1381 4ce5 deda c13f 1fe0 5d29 5936 c53f
00000140: 8568 7dbb 1309 a43f 9281 74e8 9ecc b4bf
00000150: 6b55 2aa3 c75f d0bf 1723 1f57 7ecb b2bf
00000160: ce21 e3ef 596e b73f c3bb 4144 ceeb c4bf
00000170: 47cd 3707 1d30 d23f 8622 e749 2ecd c03f
00000180: 1b4e 6271 fb61 9dbf 85b7 f266 6e29 a3bf
00000190: 3437 1ef8 a194 b33f a372 5cc2 f593 d2bf
000001a0: 7488 551d 31ae a6bf 3984 99c3 3632 a3bf
000001b0: 3da3 dc24 a09f bc3f 00fc 0510 dc37 abbf
000001c0: 7d92 5885 e558 d3bf 3bcc 6f77 1ce2 b7bf
000001d0: 205f 9165 494c 993f febd 72f5 d24c c73f
000001e0: 063f 57f5 5462 943f 4f52 f39e f16c 9fbf
000001f0: 3f65 04c3 507e c43f 7186 c1bd dc53 c6bf
00000200: 8385 028d 9207 b8bf c31f 1052 79e1 9fbf
00000210: fc9b 0336 dc45 8c3f f3d0 6766 ae06 acbf
00000220: df13 1ee3 dc6b afbf 9f0c aeb7 bac0 cabf
00000230: bde0 a643 2d5a b4bf ea9e a95d 5873 c13f
00000240: bb62 0da0 77cc b6bf 1b0a f6b0 f1da d0bf
00000250: f031 94db 8c12 bf3f 67e7 6c98 fdc6 b43f
00000260: 1ca1 9b03 9659 cf3f d4b2 7303 f5d1 c03f
00000270: ca58 8cef 6e91 c53f d59e 82cc fc32 c1bf
00000280: 255b e782 ca73 d0bf e64b c31e eb59 c1bf
00000290: 2d50 11cd b07d c5bf a116 3ece eb23 d1bf
000002a0: b2f9 cf07 9814 c6bf a71e 3f8c 6995 c3bf
000002b0: 59db 0f6a 019d c3bf 5df9 1ce6 328c c13f
000002c0: b21f f6de 32ce b5bf 5295 cc06 1524 be3f
000002d0: ef6d 1e4e 8ebe c53f 4425 add6 6504 b9bf
000002e0: ab22 d684 ea88 d1bf cdf5 7238 7b39 cbbf
000002f0: 133e f65e db59 c13f f3e4 df63 6121 d0bf
00000300: 2109 9e22 9b3c c93f 5d2d 3e26 a4d4 bd3f
00000310: bfcf f88d f817 b33f 0671 1282 fef5 c6bf
00000320: d18a 14d5 7c5d c03f 18dc 56f7 981b d2bf
00000330: 4425 c3d3 a98f bd3f 01a8 b973 17a7 c5bf
00000340: 9e41 da74 7359 b0bf 7d01 b120 c138 b2bf
00000350: b148 7faf 2a08 d1bf 75fb e618 e5c4 bdbf
00000360: 0a6a e79c 7abb c13f 8f58 a034 5e70 c83f
00000370: c7bf 15e4 f7e8 853f 6c5e d1ec 152b a43f
00000380: d0c6 3f0f e072 d03f b629 f00b 5978 d13f
00000390: dc49 1b30 c495 c53f 9e78 2ab4 ca3b b23f
000003a0: 45b3 cf66 4cbf b8bf 00ed 3010 9a31 bc3f
000003b0: e6a1 4c26 c985 343f c4e6 1529 d826 d23f
000003c0: 1d85 c689 dfd3 a03f fa5d 0ddb 9d3c d23f
000003d0: d22e a2f7 2272 943f 9113 fe84 0609 d2bf
000003e0: 2b3d 2cdf 54ea 883f 9862 acdf c527 313f
000003f0: d38a 4900 cd23 d13f ddc1 ac96 2122 7bbf
00000400: e908 3182 b378 b3bf aac2 cc00 7f6d 88bf
00000410: c974 0777 41b8 bebf f87e 5957 7932 d23f
00000420: 2b51 aa89 d292 a5bf 9968 ea5a 613a bd3f
00000430: 8bd5 6118 8503 b33f 3de8 5090 38ce c3bf
00000440: 3dc6 bcb1 b128 d33f 1959 d31a 80c9 c4bf
00000450: c04d 5458 91d7 ae3f 734e f701 b8f9 bcbf
00000460: 330a 6136 6122 cdbf ed76 69c7 80f0 cfbf
00000470: 5d21 0e42 f56e 94bf 161a c2ea 3939 923f
00000480: 8bb2 9908 9f61 aabf 7377 36c2 dd3d cc3f
00000490: c4c5 fc91 df86 c2bf cdfd 59f1 1d8c c33f
000004a0: 34e3 e58d 5227 83bf 2089 c5de 2a15 c5bf
000004b0: 973b 0ce9 2a5d 8cbf 232b 9fe1 777e ca3f
000004c0: bff3 49ce b789 b9bf a5b1 b096 dbc7 ba3f
000004d0: c832 cc88 2c51 b53f eca0 ee19 0ff5 9bbf
000004e0: 2bcb 9bd5 8574 a63f 0c81 adc2 9c98 c93f
000004f0: 1253 6311 9dae 66bf 01c3 cf58 305e bd3f
00000500: d09b 49d7 72e7 c5bf 7700 ec23 3443 afbf
00000510: ddaf 193b d3ec ba3f 52cb b7b7 654d d2bf
00000520: 83d5 46fa 5090 cebf 545b 3bc9 4958 d1bf
00000530: 8bc4 8ab1 d942 b0bf 8dcd 3b71 ba6e aabf
00000540: 562c 7c3b 802d c4bf 077d 3c6d 7237 a53f
00000550: fe9a f912 ca99 a53f 5c3a 18ea 6d96 b03f
00000560: 96cd 9cdc db67 bbbf c067 db15 9276 ad3f
00000570: 1258 86c7 72de c23f 56ab 9ca0 1b26 b93f
00000580: 536c a2cb 4e9c d23f f713 7d63 1d72 c5bf
00000590: 2f34 3061 9f86 a4bf aec0 edf0 bf7b b73f
000005a0: 2ca3 ceeb 1cb5 b8bf b4bc ea89 0742 a13f
000005b0: 028f c347 fcc4 d23f 1ede 4509 2670 a6bf
000005c0: 2fc2 1304 ab2e b93f d5e8 c584 920b a13f
000005d0: 124f 6bd5 6172 973f d975 9548 5ebf ca3f
000005e0: 9dbe 8b96 41c1 bb3f 7778 7eb2 0d56 ad3f
000005f0: b71f a700 4c6d aabf 0119 2f78 660f b93f
00000600: 0c36 78e1 8df4 c43f dc94 777c ba68 c33f
00000610: 9015 114d d34e b3bf e4b1 3f63 c2d2 c3bf
00000620: b9a1 3bbe ec87 c33f fad1 a75f 3df1 d03f
00000630: 7193 550a 215e b1bf 27a7 87f0 2efb bf3f
00000640: 033c 8693 316b bb3f d72d fa6a 5f50 c93f
00000650: 16a9 f8be 3b2a 773f bf9c 670f c383 ccbf
00000660: 0a56 5423 396d b13f 05f7 88c5 965f cabf
00000670: 7b8d ef59 666b adbf 0c3e 2caa 7aed c63f
00000680: ec38 7ab9 2a9c be3f 94a9 a398 e2eb c83f
00000690: c3c7 7e44 ebf6 ae3f 2489 c7ee 11a7 a03f
000006a0: b8b1 3c5e 43e2 d23f 56d0 6be1 bf50 9e3f
000006b0: 8423 9790 2d55 a8bf 472e 63b1 c361 cc3f
000006c0: 73d6 4670 110f cabf c04f 2f27 bd28 8fbf
000006d0: 59f8 0b6d db8d 913f 43ff 66d8 6ece 7f3f
000006e0: 7ba2 0b98 01f4 a33f dd7b f7ca 6899 c73f
000006f0: a2c9 2324 ca76 c33f 772c 6c3a da42 cfbf
00000700: ffb9 a54f 0c69 c4bf f7bf b42f ca13 c93f
00000710: d0c0 deee 1a67 c0bf 0281 af8b 6bd6 a23f
00000720: 0277 dcf4 049f 993f a7e5 6362 73ba cb3f
00000730: bb5a ded9 cebc c5bf 83dc 2033 8625 cd3f
00000740: 7428 7f3b cf98 d13f 3ee7 dca6 4e42 bc3f
00000750: addc d90e fcb4 abbf dc9a 73f1 d71f c4bf
00000760: a295 7d4b cac9 c93f 20e2 a326 adae bcbf
00000770: 9aa9 850a 003f ce3f 5192 6c0b a16b d1bf
00000780: 247d 06b3 6a2c bdbf 1c72 5d20 057b cb3f
00000790: 32c8 7805 9fda ca3f 3c0c 05cd 988c 77bf
000007a0: 0ea2 11ee 0201 7f3f fcf9 873c fc7d b43f
000007b0: 73cf 92c4 63ee a73f e5dc d0db 9211 993f
000007c0: 105e 5110 22c2 c63f 066a 6b2c 5ba1 ad3f
000007d0: c6d7 4843 10a7 bdbf 599d 4b66 4a6e bf3f
000007e0: 5459 8316 f857 b13f 5fc5 dabd ddd4 c43f
000007f0: cfd6 8591 997b aebf 1f74 9f70 d8d9 d1bf
-0.1939509369189549 0.1975698080265041 -0.15417126283585486 0.06120521882774724 -0.2201711429818901 -0.005738825435382864 -0.037921585388369865 -0.2680312337514932
0.07163462292117193 0.19967673058842625 0.23910832386354255 0.08090246499944867 -0.13614443856836672 0.08334201613014346 0.1734562746596558 -0.07728778488719211
0.23244050772261196 -0.022577752516205425 0.10922997784740694 0.13481131166762209 -0.07884738996003154 -0.07013589430558047 -0.15330548428050994 -0.2666492506247133
0.13972213265324082 -0.022888153805260963 -0.051289460763201435 0.2693129867249168 0.0446978116769345 0.008814179984144868 -0.26728911448900833 0.19589995139625993
0.07513361777178458 0.025785123144357346 0.02516301439861814 -0.05001981244650216 0.18197942575429815 -0.09839919861352601 0.1394919032691254 0.1657210781083913
0.03913175262160088 -0.08124726462529555 -0.25584593710057985 -0.0734175646495142 0.09152757746335924 -0.16344621975755844 0.28418660836105797 0.13126162155665017
-0.028694084926042956 -0.03742547041598158 0.07648670489853943 -0.2902807615335325 -0.044297728377174744 -0.03749247682277041 0.11181069278667351 -0.05316055007551057
-0.30230081579274054 -0.09329393306670479 0.024705073188982074 0.18203198418403582 0.019906356310285943 -0.03068902523667055 0.16010484239886044 -0.1744342733900797
-0.09386554663298878 -0.031133552201964464 0.013805122755412562 -0.05473847389285593 -0.061369803165724816 -0.20900663346046586 -0.07950098897606757 0.13633255551689355
-0.08905742318655545 -0.263363287747923 0.12137680397808714 0.08116135569880854 0.2449214475266296 0.13140738171150323 0.16850077339831265 -0.1343685148797166
-0.25706732543533156 -0.13555659296125028 -0.16789827359264234 -0.2678174509131655 -0.17250347501244573 -0.15299720142342219 -0.1532289283638544 0.13709102855677716
-0.08517759269136496 0.11773806968684156 0.16987780393979743 -0.09772335520860503 -0.27398169491110974 -0.21269169098188315 0.13555471550761009 -0.2520373797738806
0.19716204824732933 0.11652589734710746 0.0745845171557553 -0.17938214636968314 0.12785301594074963 -0.28293441919544327 0.11547337932565421 -0.1691617312492895
-0.0638649139675693 -0.0711785034955081 -0.26612345827482914 -0.11628562791791615 0.13853390370680102 0.19092919892927226 0.010698258064365874 0.039391217382839766
0.25701142777607533 0.272970449121796 0.16863300656275626 0.07122485064107528 -0.09666898260156838 0.11013186354914595 0.0003131500327975531 0.28362087261448843
0.03286646420316173 0.284949745100192 0.019966646541930207 -0.28180087077662913 0.012165701924031843 0.00026177006627529356 0.2678101065450111 -0.00662434692894506
-0.07606050423149537 -0.011927597247990935 -0.11999901920303836 0.28433068781121973 -0.04213579111561424 0.11417206258411951 0.07427245946185772 -0.15473086401635952
0.29935877186935383 -0.1623993044838208 0.060238401443850176 -0.11318540618895571 -0.22761168627956038 -0.24952707039749758 -0.019954521328629727 0.01779642577505499
-0.05152604084000697 0.22063800795597963 -0.14474100712099702 0.15271353039496063 -0.009352345424063914 -0.16470847966690716 -0.013849578129819835 0.206984505812522
-0.09975765978192806 0.10461208752594205 0.08326986636911748 -0.027302013356945418 0.04385774834181285 0.19996985917806176 -0.0027688091023300243 0.11471845787287906
-0.1711257506569539 -0.061059598336215375 0.10517616455916774 -0.2859739584084099 -0.23877918453733224 -0.2710136857180505 -0.06352005562327372 -0.0516260398125282
-0.15763857750457316 0.04143865188074796 0.04218894464138677 0.06479536977006134 -0.10705351005599648 0.05754524723825183 0.14741358511372532 0.0982377307051768
0.2907902706735445 -0.16754500730362995 -0.04008958875065393 0.09173202163742886 -0.09651356465350308 0.03370688971096439 0.2932730389422745 -0.043824375755260755
0.09836834764042444 0.033291414935733656 0.02289727082354804 0.20896509689457224 0.1084176056426664 0.05729716113931798 -0.05161511905640686 0.09789123949221691
0.16371320256477906 0.15163355901237352 -0.07542153007042018 -0.15486936422475062 0.15258559502332306 0.2647241052757462 -0.06784254553128989 0.12492650387107727
0.1071043954054716 0.19776528094767684 0.005655511267415278 -0.22277105571922637 0.06807286369834045 -0.20604214329971896 -0.057460020521626874 0.17912228879184544
0.11957041767366022 0.19469864323702935 0.06047759257434351 0.03252464332378427 0.2950600071224261 0.029604910024275753 -0.04752485647219998 0.22173353349204403
-0.20358484251271455 -0.015214421995473404 0.017142704516111305 0.007765229215180916 0.03897099476836715 0.1843691817329888 0.15206267132414292 -0.24422767498649353
-0.15945581330329614 0.19591643647572685 -0.12814652122097536 0.03679214553972267 0.025020673222676322 0.21662752441606622 -0.16982446325410713 0.22770764824392495
0.2749517518065041 0.1103867680912147 -0.05411517792975338 -0.15722178735378278 0.2014706486326477 -0.1120403498970366 0.23629761232161856 -0.27219415774951466
-0.11395899649368296 0.21469177322696076 0.2097967888562962 -0.005749318006851797 0.007569323964255149 0.08004738309680443 0.04674064421251858 0.024481100718017585
0.17779947087068182 0.05787167470198899 -0.11583043711365723 0.12277665135808515 0.06774855184207712 0.16274616022341612 -0.05953674222375371 -0.2789212322075531

linear2.weight f8 [256, 256]
00000000: 7787 a861 7168 a1bf 0f98 bc2d c96b 903f
00000010: 9925 3f07 32f2 a53f 2b8a b3d0 dc43 943f
00000020: 7dd1 9846 429d a93f 6466 53e2 5b31 a9bf
00000030: d5c8 5f38 0193 a13f 3188 1c53 40b9 a73f
00000040: 00da 157e 4f61 57bf adbc 0207 df53 7b3f
00000050: 5fa1 87c5 1743 a2bf 881e 71ae 9732 943f
00000060: becf c68d 5dad 973f 9673 cd15 94a5 60bf
00000070: 12b3 d469 41e7 53bf 896f 738f 2155 80bf
00000080: 3553 8ab4 0b95 923f 8ebc a00c 791c a7bf
00000090: 6874 6503 0ef4 9d3f c1f6 09dc fe09 a93f
000000a0: 3005 fcdf 2e2d a8bf 4f4d 0512 8517 a13f
000000b0: 6c83 3ea6 57da 853f 1af6 fb32 5429 923f
000000c0: 0313 064e 85f2 a83f 88c3 2053 91c7 87bf
000000d0: 8edf 5699 c90b a4bf 9cc4 f8da 7298 3ebf
000000e0: 1637 af58 ecd9 aebf 9251 7495 06d5 a8bf
000000f0: 7fca 66b1 d294 933f 59e0 6044 4bdf 90bf
00000100: 11f0 006c 82a1 a33f 917b 0724 3d3b b33f
00000110: a5dc 90d5 259f a9bf 55ec 1010 ef81 84bf
00000120: 908a 9bfd 24e7 8b3f 0b65 8861 46e0 a8bf
00000130: 2ec2 4b11 be9d a03f 54ef d0df fe8c a0bf
00000140: 2a97 fd97 1bfb ae3f b34e 0b57 8ee1 853f
00000150: 09a8 9acf 928a a3bf bd70 9bd7 2e5c aebf
00000160: 7a49 7f4b 3a48 a4bf 350e c32e 0ad6 46bf
00000170: 2636 ef9d a408 91bf 8b24 d3ac 1640 853f
00000180: bf0c 7474 4111 a23f 2dd3 1a18 0c33 813f
00000190: 1ed5 efb1 69bc a53f d17b 20ac 15ad 9d3f
000001a0: f6c1 b8b9 f8c3 963f cae4 fe37 331b acbf
000001b0: 063b 5983 93f6 873f 4905 6839 bfd0 a6bf
000001c0: 104a 74f7 2e75 a33f 9236 d920 d5b6 a43f
000001d0: 92ae c94e efc7 9f3f 2759 7f98 9228 a0bf
000001e0: b77c 2c3e 717a a23f a997 5ee3 7883 ac3f
000001f0: 4f7d a01c 6e03 b13f 25a2 a0bd 1765 98bf
00000200: 47d9 4495 a19f 803f f9fc 7341 7ba8 90bf
00000210: d973 e23b aca0 a3bf f7db f528 3e0b 743f
00000220: e450 cfb0 5d38 a7bf 85af 3cc5 1991 a33f
00000230: 1724 3ed3 fb58 b2bf cf70 0d8c 1018 a4bf
00000240: cd45 8f80 9014 813f e0a7 6ad4 0b69 ac3f
00000250: 4ec5 602d e7c8 ab3f 771a 1793 6ae6 a5bf
00000260: bb4e 46a5 d612 68bf 67ef 0ac6 f13f 713f
00000270: 66cd ae24 22ba aebf e569 6d4d 5fcb 92bf
00000280: 6b24 a5ec 0875 893f 93e0 3822 507d aabf
00000290: 5ddc 56be 7c2d b13f 9be6 e4c0 b90f 72bf
000002a0: 2cc2 0664 0722 953f bf74 5395 e4ec 88bf
000002b0: d1a8 8f12 82d6 8abf 07cd 04a9 a008 a1bf
000002c0: ce77 7e80 d715 953f 381c 7ad7 2e01 a7bf
000002d0: 15a4 bf9f 71ae 80bf a83b 50ec 0783 a8bf
000002e0: 9425 e088 3348 a13f 2de5 7169 a98c a8bf
000002f0: e37c da38 3b7b 81bf 7e1b f87f d4ee 8a3f
00000300: b628 03a9 6e51 a93f 7ada 7996 2321 b03f
00000310: 346a a801 09d4 9e3f 282e 0f60 72f6 9c3f
00000320: d85f 050a e5db 84bf d78b c279 335d 7abf
00000330: 3db3 fe1e 583a 8f3f 0bd6 3824 be31 ad3f
00000340: a939 9889 3338 80bf 78b9 993f f59b 453f
00000350: d9e8 a44d fff0 623f fbbd 809d be3f 9d3f
00000360: cbf0 fed3 681d a73f e43b b2e3 f358 84bf
00000370: 951a a971 bc5b acbf 14be 8877 3494 b13f
00000380: b0a7 8a5a b12d 983f 70df bace 8ecb 81bf
00000390: 833a 6879 3daa 723f 71ed 5662 bb2a 9a3f
000003a0: e6ac 62d3 d590 a1bf 55be efef 798f a0bf
000003b0: 1c5c 1fd3 c872 ad3f aef5 7381 419a 89bf
000003c0: cabf 85fd f8e6 92bf d179 f2d7 6dba 9e3f
000003d0: 5dd9 320c 6f1b a2bf 5584 4675 1301 82bf
000003e0: 791e 1974 7673 d8be 1752 f9e0 1eff aa3f
000003f0: 613e 761c 69ef a23f fa45 469f 458a 933f
00000400: cb79 21f0 f449 8a3f 6bbb 2187 df0b 65bf
00000410: 60e1 6489 0153 a03f 0004 9539 5029 ae3f
00000420: bfda 69a7 410b 943f 35b2 e29b ee36 85bf
00000430: daa9 8910 a586 abbf cf5e 6e17 b839 acbf
00000440: 8606 218b 314c ab3f 257f c638 3621 a33f
00000450: d13f b5b0 6f29 7abf 79d6 edbf 00b3 93bf
00000460: 0be2 b07c 7b39 a33f 55ff 066c 72f0 97bf
00000470: a976 c07f 246e 95bf 94cf fcf8 8bae a43f
00000480: 8bb9 00dc fac2 873f a483 cc88 2bcb 42bf
00000490: 42b1 d99a c1b8 a23f 45e3 b1cd 7499 a8bf
000004a0: f376 5371 9523 8c3f c7e0 6a36 b76d adbf
000004b0: 16e2 3177 577c 8dbf 0ae6 f1ac 508a 8bbf
000004c0: a8b6 8a14 668c 76bf 94c1 1b60 c444 6ebf
000004d0: 78cd 42f2 a637 a13f 9346 2760 6fa1 a63f
000004e0: fadd 3773 dd84 993f 3f24 6d1a d472 973f
000004f0: 01bf 3834 e1cb a4bf c5da fbe4 2ab3 8a3f
00000500: 095b 6b92 de36 98bf 7eae 6f8a 3f87 aa3f
00000510: 700e 8df4 0462 90bf 868a e955 c3a7 913f
00000520: 3f8c d8ea 8134 8dbf 04c5 6c56 15d6 a53f
00000530: 8adb f07a ae2f abbf a67d 5cbf e7e9 843f
00000540: 7d53 559a 8dfa 72bf 4331 e67a 6ab6 a5bf
00000550: fb01 f7e2 7df0 a73f 178e 23ed 5365 a2bf
00000560: dfb5 7155 e7e8 923f dd29 9055 6e64 8ebf
00000570: dcb5 b9c8 70b8 a83f cdab 25f9 caf1 683f
00000580: db75 565f cb6a a0bf 3a2f ab27 a591 833f
00000590: 67b5 068f 1385 a5bf 78ec 0ba9 16b6 a43f
000005a0: db62 d8c7 3a02 b0bf 9b90 cd8f 7e0d 92bf
000005b0: e3fc 60bb a382 903f e0fd c010 5f2a 74bf
000005c0: 8e3d 721a 2527 a93f 4eb4 b496 fe55 a73f
000005d0: f6f1 152d f515 a0bf 95b5 f0b4 ade4 ab3f
000005e0: 7e79 f7a8 1628 84bf f6ce a580 4ce5 a33f
000005f0: 60c3 5ad6 cca5 9d3f d1cf 7285 c4a0 783f
00000600: 8096 8212 081f a2bf bdf6 d699 a520 a4bf
00000610: b2d8 fe63 6e36 a2bf 3b16 d5ad fe4c 95bf
00000620: 84fc 0ea5 fb6c abbf 5e88 2847 85c7 a73f
00000630: d6d1 2c98 fb3c 8b3f 57b7 847c df57 873f
00000640: c206 004d 0a88 a83f abf8 a412 da9a 97bf
00000650: d3a3 9942 d54f a23f 4081 8fe3 6e45 8cbf
00000660: d75d 32bf b7b9 a7bf 5e65 fd57 4a47 adbf
00000670: c2e8 6268 dde9 a43f f3ac 3cb5 821c a13f
00000680: f4c8 0546 e240 aebf 1fe4 e9aa b43f 7e3f
00000690: 4d35 da97 2b57 953f 1c7d abe1 3719 9fbf
000006a0: c915 ee11 f77e 9f3f 3660 df60 c3c0 993f
000006b0: 50a1 93db 0eb4 9c3f 24e5 06ef f577 a83f
000006c0: 87fa e8a6 274e 8a3f b1d1 bcaf 23a2 9cbf
000006d0: 3d2d 9944 0346 9dbf 41b7 edb2 6d57 56bf
000006e0: b39c a13a 86cd aabf 54ef d6a8 335b a03f
000006f0: 58a7 cf37 dd68 a9bf 0de2 d2d6 ddfe a3bf
00000700: 7864 cf8d a03e a53f 5747 3614 d6ca a0bf
00000710: f8dd 31d9 f58d 953f 6468 5a0c 8ea9 9cbf
00000720: 2304 8486 ac7e 823f 1ad1 d7c4 1197 65bf
00000730: c57e 4922 8eb9 5e3f f49b 63d7 9659 a2bf
00000740: bbfa 6fde 1cd3 af3f 3313 0705 394b 793f
00000750: 9f0a a4ce 22b1 703f 6c80 6dcf 80e8 a93f
00000760: 2717 18b5 8633 a2bf 902f 84a6 b584 9dbf
00000770: 984f 0777 a35f a2bf b105 91e1 1409 a5bf
00000780: bbba 5d5b 580b a13f f7d3 851a 89fc 963f
00000790: a7d1 c563 7484 9ebf 4945 460f fe7d ab3f
000007a0: c2af f312 8da6 7bbf 2daa b13f 6a1a a73f
000007b0: 01f3 d19b 4e2d ac3f e4d8 3034 3239 aebf
000007c0: 904e 29b2 61f3 afbf 8a4f cd98 15d5 a2bf
000007d0: 395a 8387 7cfb 97bf e8c1 f000 fb2b adbf
000007e0: 5b87 1812 4882 903f 1adc f6a3 4ad0 933f
000007f0: b315 5f15 c5a9 a4bf 6473 259a f372 993f
-0.033999961062604216 0.016036170403047886 0.04286342943630501 0.019790125120275597 0.05002791511325009 -0.049204703691157176 0.03432468236123191 0.046335230012360624
-0.0014270092291021053 0.006671782685017264 -0.03566812788250461 0.019724245092474862 0.02312227418742884 -0.0020320789612199948 -0.0012148035815002273 -0.007974874677920034
0.01814668931418169 -0.04513910559796229 0.029251307446760327 0.048904384956569576 -0.0472197197359584 0.03338256688098317 0.01067036129080786 0.01773578225310333
0.04872528626859742 -0.011611113881458981 -0.0391524314576933 -0.0004668503197278824 -0.060256372285591706 -0.04850025724786912 0.019122402265291157 -0.01647679905747199
0.03834159439472285 0.07512266282672743 -0.050042326278736206 -0.010013454129980707 0.013624466886033276 -0.048586081891878484 0.03245347939617137 -0.03232571107989082
0.060509550384081415 0.01068412020814633 -0.038166606752682304 -0.05929705030368513 -0.03961355372998106 -0.0006969022483862055 -0.016634533061553956 0.010376145505136122
0.035287900414937116 0.00839814613878217 0.04245310113030086 0.0289805780704418 0.022231947265199246 -0.05489502008954046 0.011700775571765753 -0.04456136298905251
0.03800341387445283 0.04045740152342349 0.031036128219439414 -0.0315595446733588 0.036090411033222684 0.05569055343157398 0.06645858954333515 -0.023823138188307297
0.008116972320391226 -0.01626770579332246 -0.03833521109593336 0.004893534481531062 -0.04535191329310509 0.03821640522650597 -0.07167028338712132 -0.03924609861016536
0.008340004847840721 0.05548893897987717 0.05426714352541727 -0.042773561911919104 -0.0029386703774408585 0.0042113727837963305 -0.06001383493221617 -0.018353928662102965
0.012430257531962327 -0.05173731248618298 0.06710033080058637 -0.004409528350430537 0.0206376223374624 -0.01217058735567844 -0.01310445422310061 -0.03326894820420461
0.02059113237157089 -0.04493090038618458 -0.008145225227012923 -0.047874686810352174 0.0337539772591057 -0.04794816410226086 -0.008535826370744853 0.013150844722088936
0.049449403888119844 0.06300566123705123 0.03010572502726401 0.028283869851106896 -0.010185040825191935 -0.006436539723071419 0.015248001523866623 0.057020131990082566
-0.007919695507578721 0.0006594607832093721 0.002312182082417552 0.028563478816236536 0.04514625156250104 -0.00993528879760492 -0.055387390970783525 0.06866767805399149
0.023611804152700422 -0.008689037021539753 0.004556884893203719 0.025553634526415295 -0.034308130315673854 -0.03234463743126229 0.05751636101893373 -0.012501250994769144
-0.018459215616019077 0.0300080454877561 -0.03536555313023613 -0.008791114822829163 -5.82957892587105e-06 0.05272766586555038 0.036982807850219464 0.01908215317377502
0.012836373880586024 -0.0025691381243215148 0.03188328554319031 0.05890894606501007 0.01957418999014737 -0.010358680851220029 -0.05376163317562872 -0.05512786184334361
0.05331568549491998 0.03736276095446404 -0.006387172975635695 -0.01923752948228816 0.03754793068987191 -0.0233781698641445 -0.0209279730771558 0.04039418615721427
0.011602363432839954 -0.0005735361642998827 0.036565828468925435 -0.04804577837871319 0.013739745636879052 -0.05747768916393308 -0.014397319150007564 -0.013447408941135403
-0.005504988432830572 -0.0036949000794878704 0.0336277170876213 0.04420040177104769 0.024920902402270052 0.022898973572669453 -0.04061797869178286 0.013037047493964402
-0.023646810232857116 0.0518131119241305 -0.0159989141714178 0.017241527670544453 -0.014260306338718219 0.042648951339638 -0.053098156459262816 0.010211763884909807
-0.0046334773408788195 -0.042407348158209256 0.04675668139998731 -0.03592932004701426 0.018466581907366716 -0.014839994417361996 0.048282169821373094 0.0030449833222312207
-0.0320647767905304 0.009555139802067115 -0.04203091736722336 0.04045172513539169 -0.06253402117762212 -0.0176296019811991 0.01612335044069092 -0.004923220967668368
0.049126777151396 0.04557796086951581 -0.03141752410281022 0.05447905381911792 -0.009842087775663751 0.03885878630071986 0.028952789862788264 0.006012694989454518
-0.03539300180390814 -0.03931157591749244 -0.03557152720115776 -0.020801524505506413 -0.053565849207637434 0.046444096504516294 0.013299909192576214 0.01139807318449086
0.04791290464346566 -0.02305165041729455 0.035765327815915925 -0.013804308242413854 -0.04633878907150873 -0.05718452762693958 0.0408467473912011 0.03342064344755071
-0.05908877472656285 0.007384973271308075 0.02084034075101231 -0.03036963763122201 0.03075777098594815 0.02514939574015803 0.02803061690511416 0.04779022734460117
0.012844381123725114 -0.02796226272694619 -0.028587390005026626 -0.0013636180189808419 -0.052349276215687544 0.031945814476300655 -0.049628174841770345 -0.03905385253296254
0.04149343234139108 -0.032797517745292985 0.021049348241346494 -0.02799055052182843 0.009030673842518827 -0.0026355120705777836 0.0018752944971750934 -0.03583976153623061
0.062157537606244394 0.006175253613439224 0.00407518002089327 0.05060198337628283 -0.035549363714422015 -0.028826559341765867 -0.03588591411576586 -0.04108491185662489
0.03328968158063136 0.022447721713849202 -0.02980214938129824 0.05369562088447794 -0.006750632353241972 0.045123405718943445 0.05503316547490123 -0.05903012168021052
-0.06240372943707684 -0.036781954672419806 -0.02342028214556022 -0.05697616945724687 0.01612198458145229 0.019349256761156487 -0.04035774122125293 0.02485256794294645

linear2.bias f8 [256]
00000000: 6860 7efe 6235 7dbf 5275 7fdc ecdc a03f
00000010: 0023 dad3 9b5d 91bf 4526 8075 2afd a43f
00000020: d1cc f0e8 7f53 9c3f 25e6 2300 5b14 913f
00000030: d160 b9d0 b8a5 9a3f 62f5 639c ff99 673f
00000040: 5ca5 4e62 e843 61bf 2bd1 57ca 29e1 943f
00000050: 16d3 140a 99b9 45bf 0c93 d1d3 b8f4 ae3f
00000060: 8ca8 d13e 8445 a73f b03f 10c0 8b5d 913f
00000070: 9558 96d1 d62b a03f 9ae7 0516 8771 65bf
00000080: 4ae9 342d 3f47 a7bf f26f 66d0 4066 663f
00000090: 5684 dd16 2475 a13f 0471 48ec d315 b03f
000000a0: 610c 365c 763f a1bf d89b 786b 520b 91bf
000000b0: 072e 2f48 dd04 913f 4cad 5464 f3db 913f
000000c0: 1325 321c b11e 98bf 30c0 965d 0e75 a83f
000000d0: fb72 afa1 a27c 8cbf d50d 7adb 0d5e 973f
000000e0: c760 9934 4a27 993f b2c3 e31c e3c5 a53f
000000f0: 86af 74d4 c8cb 87bf 490e 9b8b 28dc 7fbf
00000100: 9024 889f 6c7f 913f ce34 cf82 2bc0 ab3f
00000110: 3a8d 4f4b 5a78 b0bf 8371 03a4 6099 9fbf
00000120: 7542 cc8f e5e5 a93f 8533 1446 d433 92bf
00000130: b7d2 8c8d 34f8 973f 56c1 788b b6c0 aa3f
00000140: 2426 bbbf 2f30 953f 2d8f 7475 b021 663f
00000150: 1257 86f1 4b3a 96bf 562b dadd 236b a1bf
00000160: 88f9 5a20 a620 94bf b110 0288 cd09 8b3f
00000170: adf1 ae7c 4516 ab3f f524 5a28 70da 7ebf
00000180: 8e5f af2d 10de 9c3f baaa 1b51 47bb 3a3f
00000190: c245 ef57 777c 9e3f b7b7 eebc 60d0 ab3f
000001a0: 7083 4e25 ca6c 94bf 20b7 6ec3 3a3e 703f
000001b0: 9217 10a2 97e4 a6bf 6e5b 20ed 9366 b3bf
000001c0: 9305 6512 9d78 a03f ffd5 e6f8 3016 9d3f
000001d0: cec7 31f5 366e 83bf 95b6 fd15 78d8 90bf
000001e0: d977 bd4d 5bc9 a83f ec03 c936 be63 96bf
000001f0: 8ea2 8316 d302 a0bf 41b5 19da 6e25 ae3f
00000200: dedc 171c 70f9 a2bf ebbb a970 d35c a13f
00000210: b554 1a82 c309 983f dd9b f20c d2f3 943f
00000220: 5f58 f629 dedd 5cbf 44a3 9913 cdb9 9cbf
00000230: d848 4457 b448 9b3f 1623 b2cf 036e a23f
00000240: 4eb0 a19e 5eef aabf 8d85 dcd1 6c0e 59bf
00000250: f611 f251 5b7c ad3f 1e47 d084 53ac a43f
00000260: e41e 38ce 575b 9bbf 9a52 9661 c92a 813f
00000270: 2747 22b8 75dd a83f d87d fe55 984f a0bf
00000280: 2100 364f acc7 9cbf ae61 6a09 4e27 a0bf
00000290: 2568 bc06 d4f4 99bf b747 1661 3ab9 8bbf
000002a0: aac2 cae6 b9fc 793f a2a6 6732 e29f a9bf
000002b0: b44e f311 02d7 a5bf 2c6d e867 9662 a7bf
000002c0: 147c 9dca 294f 46bf 127b b413 717e a0bf
000002d0: b863 ac53 d20a 793f 5148 c9cd 7e97 b2bf
000002e0: de3f e524 d5f3 a1bf db4e 48ba 4995 9fbf
000002f0: 5ffb 1779 5161 9c3f 288b ec72 d072 7d3f
00000300: 245d 3253 0a0b a8bf 6a7d c6df 4e78 9b3f
00000310: ee74 18da 62f5 7a3f 3b98 1ea7 6c44 8ebf
00000320: d97a c05b 0e90 a8bf 559f d944 a82a 953f
00000330: 702e 3d55 2d0c 7bbf a5e2 7454 c232 a43f
00000340: 9736 d928 2f77 87bf 9654 73b1 528c 9c3f
00000350: f624 8c90 d71c 8fbf 99a1 024e 823c 703f
00000360: 102c ffe2 4f9d 863f 995c 454e 0142 a93f
00000370: 580c 6275 1a6e abbf 2c3a 4f9a c8a0 93bf
00000380: f5bf dd6b cfa9 7a3f 6356 59ad eeab 83bf
00000390: 74ce 268c a01a 9d3f 2267 218b 4e48 a9bf
000003a0: d136 a99c bdcd 803f 8ade a6ad eb7d 203f
000003b0: 8c4a ce6b 9dc9 4c3f 8f79 e437 0b78 763f
000003c0: b881 d6ab c684 acbf 467c 8863 4536 ae3f
000003d0: b523 62b2 26ea 963f 1398 1cef 3428 893f
000003e0: b64b f232 3c35 a13f 6ad5 c844 4354 973f
000003f0: 4b08 a4b0 a151 993f d4e9 6249 e58d a03f
00000400: c284 6fd3 4375 823f b85e d7e8 650a 903f
00000410: 2b5b d817 e4d3 a7bf 0918 d14b b7cc 843f
00000420: a9b6 05ef 80da a6bf 2331 8c5d 6647 7fbf
00000430: 5757 cb7f a628 a1bf 2752 8232 57ba a9bf
00000440: 99a6 7ee8 5f72 a1bf e87f 07ea 5bb1 a23f
00000450: e3ba ca45 806d 9e3f 68c7 93ef a1e4 943f
00000460: 8e05 63c5 7c30 aabf 2335 4333 75f6 a13f
00000470: 3cb8 7e5b 157f 8d3f ea5d 5f86 23ac a53f
00000480: 7f48 d85c 355f 8c3f 5ac2 4780 723d 6b3f
00000490: 3360 d108 8273 9e3f 45a1 3ef3 a0d5 a2bf
000004a0: 834d 73ea 2187 4e3f 7da2 4121 ab0f 7cbf
000004b0: d618 ca0f c4fc a3bf 4c6d 9a6e 4ae8 a0bf
000004c0: 6979 4214 c8fd 98bf 09cf d732 5230 8cbf
000004d0: b79f b501 5082 95bf 0d3c 2be1 2554 9dbf
000004e0: 27c9 b39b 4c51 a1bf 668d 31ff f4a9 a33f
000004f0: 6335 565a f668 91bf 02e7 cc55 4436 ac3f
00000500: 9b26 3894 fa62 a2bf f8fa 7ec3 215a a0bf
00000510: 6941 d321 24c1 ab3f 56c9 6d7f b949 953f
00000520: d524 e496 2031 9d3f ae33 4bcd b951 a4bf
00000530: 27f2 f077 fb95 83bf f5df bf55 7d83 af3f
00000540: d0e8 b848 9239 98bf 0338 f627 6f47 aebf
00000550: e484 3a6d 3345 9cbf d739 bafe d596 86bf
00000560: e8f0 fb09 60ff a93f 903c 092e b3d2 743f
00000570: 00ff 1440 e7e2 753f fce6 5ddf 0377 63bf
00000580: 05ca 1cb9 07aa 903f d0fc ccef 75fc 9d3f
00000590: 48e9 0da3 c65b 9cbf e0a0 c381 3ca3 89bf
000005a0: 5533 2e7f 4c23 a23f 983c 48e1 9d47 703f
000005b0: 85f0 38ac 37de 8bbf 429c 83fb 9bcf a7bf
000005c0: f851 8a93 343f adbf ee4d 37fb a284 a5bf
000005d0: 356c 5aba 081e 783f 8e93 0a3f 1129 a3bf
000005e0: 0b00 9ef3 cfab 90bf 0b9d 10fc 5976 5dbf
000005f0: d095 54c5 ff6d 9d3f 4eeb f231 664f 85bf
00000600: 539c a7ad 7637 a3bf 67c2 2e24 91a9 a4bf
00000610: 4b50 1af6 3bc3 afbf a61f 8d33 9e35 a03f
00000620: 5e58 7ddc c4d3 3c3f 145a e20c 670b 97bf
00000630: 9116 6d43 d868 a53f 7284 1e2a 05ce 8f3f
00000640: 94b1 cd9d db8f a83f 8170 66fb dbf9 95bf
00000650: 7398 4fda 9db0 4dbf 437e 9804 9ab4 8d3f
00000660: ddbd c5bf 5b15 933f dbd4 9f9d 8516 90bf
00000670: 330a 45e3 737c 85bf 16c1 b3c7 4f65 453f
00000680: 2243 0917 82fb 543f 9395 1ad9 4fd9 9d3f
00000690: ca70 738c c232 723f 9656 d889 624c 8ebf
000006a0: 5efb a67c dc5b 53bf 5708 1d5f 0916 9fbf
000006b0: 6a6b 59f0 83c7 85bf fa8c 0e6b 2866 abbf
000006c0: ddb1 4555 b34a 743f b8db 3786 6606 4abf
000006d0: 7f85 e02f 4422 a13f 821a 0720 5b27 76bf
000006e0: d693 2376 237d 9b3f 7115 ce5e 52bd 81bf
000006f0: ad70 ae4b 839c a2bf 4630 f6f7 50ab 85bf
00000700: 1fc8 35d0 fdbb 9a3f a584 6c93 0c02 86bf
00000710: edb2 4fa0 28d9 7c3f 2bab 1280 73d6 9cbf
00000720: e3cc 0c4f 9e99 98bf c68c 9dff 9d93 9f3f
00000730: b6ac cb46 2198 a73f 5ec3 203f 67e8 82bf
00000740: 67cb bc9d fcbc acbf 8235 dffc 7b41 a53f
00000750: 4c52 8a58 9cb8 ae3f a280 ead9 14b5 8bbf
00000760: c0ff c0a1 6a21 97bf 6250 56de 332d ad3f
00000770: b793 b4ab e82e 7e3f a250 1733 7e78 783f
00000780: 8e1f 72bd 4769 a3bf ff6f f1e1 7b7c 81bf
00000790: b40c 73af 3f83 a1bf 7289 d292 5841 9cbf
000007a0: 1a82 0880 a322 a8bf 6275 d383 0baf abbf
000007b0: f029 7c67 1980 b03f e0f0 c6ef fd73 acbf
000007c0: 1f37 06ed 948b 733f 9963 22d0 8bb1 873f
000007d0: 142e 2be0 1226 a83f 9f83 8196 7a09 86bf
000007e0: f54a 2383 956c 86bf f82d a8b8 9e2f 9ebf
000007f0: 5cb1 2b42 b5b7 8bbf 3977 fb43 adcf 973f
-0.007130991645588926 0.032935525814290614 -0.01695865135710317 0.04099400219281483 0.02766227587944742 0.016679212459143628 0.026022804011831383 0.002881049385108512
-0.002107576251053329 0.020390179610289366 -0.000662994123706714 0.060460830551880645 0.045452244442302975 0.01695841178667451 0.031584466061006435 -0.0026176107787109883
-0.045465444820779924 0.002734304990736896 0.03409683970563353 0.06283306616427714 -0.03368730426429845 -0.016644752320782746 0.01662011864736537 0.01744060802336138
-0.02355458006471618 0.047768067287848104 -0.013909597930188413 0.022819725533293884 0.024563941440960215 0.04252538421304254 -0.011619156821858 -0.007778318767751432
0.01708764766411669 0.05420051547808101 -0.06433643664017988 -0.030858526239954564 0.050582097819760564 -0.017775837685849467 0.023407765521556736 0.05225153400931741
0.0206916294835421 0.0027016111813668226 -0.021706759087087475 -0.034020539123125346 -0.019655795788588587 0.01320229121507341 0.0529042925549875 -0.007532537570690713
0.028190853870767855 0.0004078911889410609 0.029771675817590333 0.054324172080085935 -0.019946249510783998 0.003965596718371406 -0.044712770970405505 -0.07578396357744818
0.032170208449780045 0.028404965583566973 -0.009487561567059457 -0.016450764028766846 0.04841122936225845 -0.021864864438842987 -0.03127154970008404 0.05887934124334971
-0.03705931036886921 0.03391133070260096 0.023474745574806295 0.020461351433052378 -0.0017618817872509169 -0.028052524873064102 0.0266445329917325 0.035995596984383635
-0.052607495178421546 -0.0015293181126668526 0.05758939147293411 0.04037724491366944 -0.02671563335573425 0.008382390299439369 0.04856460449913263 -0.031857262132003406
-0.028105442366268222 -0.03154987206397962 -0.02534800807107031 -0.013536888206349447 0.006344534089905688 -0.05004793992322944 -0.04265600651856741 -0.045674038108894116
-0.0006808237132921468 -0.032214673667331564 0.0061138358967349135 -0.0726241352470265 -0.03506342006096451 -0.030842926020411148 0.027714989677402154 0.007189573529816674
-0.04695923104844216 0.02682612648788788 0.006581674709676506 -0.014778946733553613 -0.04797406072633743 0.02067053718783936 -0.00660340984525086 0.03944976120914604
-0.011457794603440248 0.027879039841384477 -0.015191730593431246 0.003963955881922132 0.011042236437694114 0.049331703953322044 -0.0535743969239994 -0.019168028276732738
0.006509599914224386 -0.009605278649512166 0.02842188697259336 -0.04937978218431584 0.008204919188894351 0.00012582303936680236 0.0008785265596194677 0.005485576459504662
-0.055700500942524156 0.059007805252115506 0.022377590787559593 0.012283719584569785 0.03360927698044895 0.022782374451897715 0.024725462347312804 0.03233257790403213
0.009012727632525478 0.015664665543083628 -0.04653847495153792 0.010156089783901494 -0.04463580053093825 -0.007636451592372392 -0.03351326284398109 -0.05024979106488941
-0.0340757342631381 0.036509392087964276 0.02971458841301001 0.020403414008746706 -0.05115117940432433 0.035083448894150736 0.014402548651414653 0.04232893958367952
0.013853470703029778 0.0033251987790594963 0.029737502849769903 -0.03678610772414229 0.0009316363911246326 -0.006850880123331235 -0.0390378255151959 -0.03302223777901733
-0.02440559981970961 -0.013764040161710083 -0.02100491533693091 -0.028641311519830782 -0.03382338905966469 0.03840604415088471 -0.017001961959569722 0.05510152385109103
-0.03591139849966148 -0.031937651743183026 0.05420792496591071 0.020789049532546976 0.028507718286196877 -0.0396860182860118 -0.009563412282767093 0.06155006095644914
-0.023657117546670048 -0.05913874972166868 -0.027607730428489755 -0.011029884182133394 0.050776482790725386 0.005083751603321876 0.005343344995082822 -0.002376086772469031
0.016273613618247768 0.02928337360503691 -0.02769384737210004 -0.012518379888618758 0.03542555859085065 0.003974549025328809 -0.01360743994074932 -0.046505808308034094
-0.05712284375218596 -0.04202756229974712 0.005888017743610742 -0.0374226941542367 -0.016280411953175682 -0.0017982367282998759 0.028739925784199205 -0.010405348204917477
-0.03753252858933167 -0.04035619322474276 -0.062036393920749854 0.031659072678450514 0.0004398685091379135 -0.02250443473948323 0.04181552718231985 0.015529671047092661
0.04797254849731583 -0.021460950106857005 -0.0009060641065132949 0.014504626527069969 0.018636163310871246 -0.015710914369226763 -0.010491280911655831 0.0006529464293674482
0.001280667344094329 0.02914929163548192 0.0044429397159683835 -0.01479413016481183 -0.0011815694038969852 -0.030357500486623525 -0.010634451649073024 -0.05351377779813933
0.004954052467251971 -0.0007942200285800871 0.03346455654560553 -0.005408626515822081 0.02684455307543828 -0.008661883848399584 -0.03635034846158312 -0.010580666129293214
0.026107755501875936 -0.01074609589483295 0.007043036171108891 -0.028161816303206393 -0.024023507666424925 0.03083655235913054 0.04608253468708183 -0.009232336629880041
-0.05612935472017604 0.041515230768349745 0.060002218063492124 -0.013528979206342055 -0.022588411448168477 0.05698549355580053 0.007368954534546049 0.0059742860480193356
-0.03791259944506385 -0.008538215477692289 -0.034204473654904005 -0.027593025170639725 -0.047139272097641974 -0.05406986221508238 0.06445463921060202 -0.05557244827238761
0.00477178739710185 0.011569111146217103 0.047165479530658555 -0.01076026698882676 -0.010949295105466808 -0.029478530903402217 -0.013533989030712838 0.023253161691960875
