lstm_300_32_10.pth (torch, 158415 bytes, 6 tensors)

lstm.weight_ih_l0 f8 [256, 10]
0.09444265746316892 -0.23068187586483654 -0.058004802632940285 0.11904352636408555 0.09027193442030054 -0.18692333195147745 0.16543391350039013 0.05635678481127452
0.20704000520775487 0.1285707214504047 0.13193904431663162 0.061550975817812825 -0.06701219926020184 -0.01701795135506765 0.10636952505360639 -0.09014906553394432
0.14895084723106797 0.024114727931659582 0.08782453179938529 0.18720464463077494 0.3085687210932205 0.0792489981618334 0.2268300410805272 0.1024362941179273
0.16360712943221686 0.026437129289055984 0.05732223174821936 0.06944079697816269 -0.16330787020715953 0.09687966541789023 0.2045397308872414 0.3925982108697153
-0.11768305313413553 0.22544664276863244 0.05902784918802033 0.020941703961000514 0.09806094612223566 -0.05994150734223198 0.39670711043688783 -0.05422228763326976
0.42220420271009207 -0.06866859415099676 -0.11682347804920451 0.3307765366159369 -0.029223420654942506 0.0640920825417482 -0.07916773675916573 -0.0441613175595923
0.02116500822258925 0.04448172540323549 0.1349161236225821 0.12830030528549516 0.1604540582699933 0.051215445289869765 0.07733673451927967 0.3713260686945653
0.20479883410441121 0.07481703295255389 0.09222866241399943 -0.037449922768460826 -0.06542721777755774 -0.17203825668500355 0.14897659240909725 0.006781619055769403
0.02013013486739766 0.30419019828173227 0.011250694010526516 0.09135577231735388 0.07029813173532774 0.1398095362221639 0.3139499466556407 0.04886384429950402
-0.09273378957298044 0.15870974205963934 0.2964540412501983 -0.050895349557982375 0.323607112451726 -0.09821321223252638 -0.13148718784028654 0.04556308040400277
0.2985278621226191 -0.001830868278177999 0.56218639205978 0.25907909901847953 -0.22281323811453466 0.23241305426332948 0.03719248687990105 -0.018382103266577906
-0.10944809426717811 0.390077313789981 -0.2174477622891609 0.09715157302574554 0.09430422929767056 0.03753054165964687 0.13757873448891386 0.16293501242077424
0.06846963112366233 0.18473035471477378 0.07435235173078573 0.08376722987559086 0.577568215205076 0.07566927766437348 0.2638492152301893 0.16210911718458654
-0.29049090684997986 0.11811374056445881 -0.037524513855497224 0.06718048918954724 -0.38941868132457114 0.09651930170874483 0.05448346075798753 -0.036729320148304684
-0.18211974526592703 0.06326644614471527 0.05633100602432912 0.037703961145230724 0.22989118678034334 0.08519332418736895 -0.042331869346671346 0.20694667803931674
0.021494541137627637 -0.09523264281526686 0.07471639416184031 -0.08850050862783604 -0.1316971771914789 0.15628727691603056 -0.03632319286852393 -0.10374808807928385
0.19370751377998435 0.4479391351501989 -0.0628021184967547 0.1956030984191287 -0.1291056667710824 0.2962464930782708 0.10293248178734331 -0.16197970978902496
0.21858580172047204 0.21860135201015884 0.13215044325164613 -0.05997342664362281 0.11093750599295328 0.4230166824465307 -0.08061236308655141 0.20232306709788872
0.04011872205575675 0.17063192927565113 0.2687013225606136 0.11482787108202056 -0.07622535902228036 -0.059302284904699576 -0.02472173958873553 0.13511020836560572
0.1375068650134732 -0.08506434145632202 -0.6032354175699542 -0.279189296801111 -0.1032988193709051 -0.2725440902439795 -0.45298520601369163 -0.13546122405833344
0.4080142585892346 0.7051007879914198 0.15785397492591347 -0.1755790006361711 -0.17832276070956027 0.030629620103955684 0.08076171087709683 0.03827101582718369
-0.03135526743888383 0.09208606028971449 -0.16173987713770097 -0.18056327450274823 -0.007158112796706127 0.2256102313790209 -0.13227999842741991 0.17421982061442526
0.3432593172948141 0.20117011981913824 0.2611797758174314 0.40160914489176003 0.07948689729942622 -0.006910115112377666 -0.10015283079573545 -0.0509328549236258
0.36957856258585753 -0.04909207743967305 0.11032128674410958 0.17462692341146407 -0.08942996537906339 -0.16638372821404313 0.1544337811576698 0.2529874575842682
-0.058750908974298334 0.20579716056560282 0.22471778810201504 -0.18016854997884738 0.31596591966527726 0.34307942938348535 0.341636206677892 0.14524871001034903
0.09968411094596513 0.21352586111059524 0.036069452387134146 -0.10209218310466925 0.08125413443922255 0.19077908123424772 0.09218570529708518 0.22607484179893275
-0.14744839356005124 0.001007294745461419 0.19525774615180141 0.7008751537802973 -0.006573406386413165 0.011659309451341133 0.4264662308372383 0.02418047814590216
0.2661068958744017 0.0032548870640994373 -0.10972677970072574 -0.06988431049205594 -0.16240609252937535 -0.18493999907071776 0.13918201063352184 -0.0699691250824074
-0.44553143572155857 0.06841352728518812 -0.43582690630920357 -0.31428716604131285 -0.19528499757847484 0.03142637214527393 0.019876750806164484 0.11354153566644216
-0.09231185211068338 0.09529213264444183 0.16930083402907695 -0.08593961335033114 -0.11750200329184189 0.04489860031229063 0.17180478101965638 0.003770889259776019
0.08427263395725984 0.029426921804040346 -0.08674224605983877 -0.007335288390175724 0.030914777070818595 0.06962627771033732 -0.03090350086747313 -0.04752978414978402
0.22429193226509966 0.028923964302002267 0.13355534986261278 0.006035752242015072 0.4096356354689923 -0.10769479894142948 -0.14818198956800918 0.10357753788142919
00000000: efd1 26dd 642d b83f a748 4fd4 fb86 cdbf
00000010: 218a a334 ceb2 adbf 58c5 88f4 a279 be3f
00000020: f6f3 14be 0f1c b73f 2ba4 cb8e 1aed c7bf
00000030: 7f15 1140 f02c c53f e521 58e7 cbda ac3f
00000040: 735d aa71 4980 ca3f 7422 ed61 0175 c03f
00000050: 0ce5 33ec 60e3 c03f 084a 5908 9c83 af3f
00000060: 276f 4124 b627 b1bf f94a 0f62 276d 91bf
00000070: 6673 657f 083b bb3f 61b6 3b58 0214 b7bf
00000080: abd2 c844 d210 c33f bf0e 46ff 87b1 983f
00000090: 3e68 dd23 ab7b b63f 019b 2c61 52f6 c73f
000000a0: c97d 6a05 97bf d33f e088 588f a949 b43f
000000b0: 4579 184c c408 cd3f 7ff1 28d5 4339 ba3f
000000c0: 43e3 2613 14f1 c43f 8a56 c9b6 5512 9b3f
000000d0: be79 62ed 5659 ad3f bc85 0740 dfc6 b13f
000000e0: 880d dcb4 45e7 c4bf cc04 9e12 1bcd b83f
000000f0: 0f59 729f 5b2e ca3f 95d3 093f 5420 d93f
00000100: b129 8100 7a20 bebf 3396 d782 6fdb cc3f
00000110: 46ac a1f3 e538 ae3f 4a40 8af6 bd71 953f
00000120: 2d1d 9cac 851a b93f b968 6a3b a7b0 aebf
00000130: a9b1 5a38 a663 d93f 31ca 3210 06c3 abbf
00000140: 10e9 b7c6 6405 db3f 4d0d 24d6 4394 b1bf
00000150: ac55 a0b9 24e8 bdbf 932c c359 712b d53f
00000160: 95fe f58f beec 9dbf 0408 73b6 5668 b03f
00000170: 8569 4738 5644 b4bf 415c 55ed 4f9c a6bf
00000180: 9cd8 8aa8 47ac 953f 03cb c007 4fc6 a63f
00000190: 24bf 5479 ee44 c13f 674e a2f7 246c c03f
000001a0: 4dda 6332 c289 c43f f0df 232d e938 aa3f
000001b0: 6e2c 8a19 57cc b33f 8e81 4c6a cec3 d73f
000001c0: 5362 5e23 d936 ca3f 7d08 b785 3527 b33f
000001d0: 726b d230 4c9c b73f c178 0ee3 a22c a3bf
000001e0: 1575 9f90 d6bf b0bf 9ebc 0f7f 5905 c6bf
000001f0: c51f 223c aa11 c33f bd73 ef00 0bc7 7b3f
00000200: 7c9c ad7b fe9c 943f 1b90 582a da77 d33f
00000210: 58fd a896 9a0a 873f 2d63 6786 1763 b73f
00000220: 01ec c5f0 0eff b13f 9a1e df64 47e5 c13f
00000230: 0ae2 5d84 c117 d43f 0848 728a ae04 a93f
00000240: 8b39 73d1 66bd b7bf 9af3 d9cf 9950 c43f
00000250: dbf1 fb5e 1af9 d23f 9273 bd8b f40e aabf
00000260: 0eec 2e9b fab5 d43f 14e5 9246 8024 b9bf
00000270: 27fb ce79 92d4 c0bf dafc 7a48 0b54 a73f
00000280: 89bb 309b 141b d33f 971b 32d8 37ff 5dbf
00000290: 4ae5 0451 6efd e13f 1123 5780 c094 d03f
000002a0: 3fad 68e9 2485 ccbf 8cbb 9c01 b6bf cd3f
000002b0: 0eb7 9cc5 e40a a33f 8f53 7211 c2d2 92bf
000002c0: a4af 7c51 ca04 bcbf 8aed 68d6 06f7 d83f
000002d0: ea66 cf09 54d5 cbbf 5289 e6ec ecde b83f
000002e0: 2f3e b56c 5224 b83f d106 0f02 3437 a33f
000002f0: 47a2 a012 2e9c c13f f03b dcf2 0ddb c43f
00000300: 1000 72ca 3987 b13f 160a 0a88 3ea5 c73f
00000310: 6b7d 1077 c108 b33f 1bcc cae8 c471 b53f
00000320: fd79 7056 707b e23f b063 e1d0 0f5f b33f
00000330: 994a 9fd1 e7e2 d03f 407a 58d6 fdbf c43f
00000340: db2f 2d2c 6797 d2bf 82bd eebc b33c be3f
00000350: 8a85 9dbf 6936 a3bf 4996 ff93 bd32 b13f
00000360: 0264 2f55 3cec d8bf bb95 452c 7db5 b83f
00000370: f6c4 4194 41e5 ab3f 94bc ae79 2fce a2bf
00000380: b5be ef26 b34f c7bf b42d 20d5 3a32 b03f
00000390: b923 40e9 6ad7 ac3f 98ca 1800 ef4d a33f
000003a0: 1b1b 6e0c 136d cd3f 0be7 38cd 3acf b53f
000003b0: b351 d8d4 85ac a5bf 27ec 188f 3a7d ca3f
000003c0: e81f ea3c aa02 963f 7639 679e 2a61 b8bf
000003d0: 3270 6615 9d20 b33f 5c65 3c26 f8a7 b6bf
000003e0: 54a7 81fe 73db c0bf c64f 91b3 3801 c43f
000003f0: e1c8 e91a f498 a2bf 82b3 5215 3c8f babf
00000400: 1656 5666 68cb c83f 6864 04e8 08ab dc3f
00000410: e325 10b5 cc13 b0bf 346c 5ab7 8509 c93f
00000420: 114a 41d4 8886 c0bf f2da d4d9 b3f5 d23f
00000430: 7b06 f97a c859 ba3f 4f68 144a c0bb c4bf
00000440: f832 e19a 9efa cb3f b05c df0c 21fb cb3f
00000450: fb77 f543 4eea c03f ef77 2044 d6b4 aebf
00000460: c9b8 2380 6666 bc3f 0c4c 3190 b412 db3f
00000470: 012a 1c07 03a3 b4bf 5cb7 34e6 b8e5 c93f
00000480: d3a2 5fee 708a a43f 1a37 f25d 44d7 c53f
00000490: cb8b 3208 6732 d13f f271 f7fe 5b65 bd3f
000004a0: c265 2050 8183 b3bf 00ce 7c7c de5c aebf
000004b0: f1a8 22dc a750 99bf 609c 2493 4a4b c13f
000004c0: 58ab 1a30 d399 c13f 8855 9cd4 c6c6 b5bf
000004d0: 370f c85c b44d e3bf 49db c9c8 3cde d1bf
000004e0: c6d7 e99a ca71 babf c438 94c4 5c71 d1bf
000004f0: e4a3 59a9 b5fd dcbf 2e74 9a1b cb56 c1bf
00000500: 1951 3cd6 e71c da3f c3d2 1987 2f90 e63f
00000510: fcd9 ec1d 8f34 c43f 4261 cc68 5f79 c6bf
00000520: aea3 b0bc 47d3 c6bf aba4 8a02 5f5d 9f3f
00000530: 9073 fcaa ccac b43f 5a93 b932 4298 a33f
00000540: 6f28 6a30 cc0d a0bf 739f 5cb9 f392 b73f
00000550: 5ffb 616d e4b3 c4bf 6c8a 6c87 b21c c7bf
00000560: b191 ce45 d351 7dbf cf3b b5ca cbe0 cc3f
00000570: d191 940d 8dee c0bf 024e edc7 d54c c63f
00000580: 5f06 75ed f5f7 d53f e81d c746 f1bf c93f
00000590: 77cc e060 2bb7 d03f a86a c5d7 f6b3 d93f
000005a0: 4d8e 5cd8 4059 b43f 4a47 b5e6 c74d 7cbf
000005b0: e897 deac 9da3 b9bf 96b5 6004 df13 aabf
000005c0: fef8 e6d7 2ca7 d73f 6333 31c6 9822 a9bf
000005d0: d95b 9e0e 043e bc3f aed3 86ce 2c5a c63f
000005e0: a4e2 95d8 e1e4 b6bf f407 a2df 0f4c c5bf
000005f0: d422 bc73 7cc4 c33f fed8 274e f230 d03f
00000600: fd4c 4f61 9914 aebf 1895 1eb5 8f57 ca3f
00000610: 6822 5d6f 8dc3 cc3f 5da4 f656 c30f c7bf
00000620: 3b3a e71e c938 d43f 6c79 486c 03f5 d53f
00000630: 21e8 b31b 5edd d53f e9eb a37d 8297 c23f
00000640: fc99 71dc e584 b93f c8fd 28bf d054 cb3f
00000650: 6655 c6fc b177 a23f ce9e 9c9b b622 babf
00000660: aecc 142a 12cd b43f 1dbd 54ed 726b c83f
00000670: 73e0 687d 7b99 b73f ebc5 fc39 05f0 cc3f
00000680: 8815 18c6 96df c2bf 39e1 4e7f e680 503f
00000690: be9e 01b1 34fe c83f 5417 02bb 916d e63f
000006a0: 2b55 3f57 b7ec 7abf 9db4 4c06 d6e0 873f
000006b0: 39d6 9204 394b db3f 5969 5a6b c4c2 983f
000006c0: 0c52 c137 e507 d13f 8c66 c22f fea9 6a3f
000006d0: 0f5d 4fe2 0d17 bcbf b31f 112c f0e3 b1bf
000006e0: 49db 0a0c b9c9 c4bf 8391 dd27 1dac c7bf
000006f0: 6b66 ee53 b7d0 c13f 996b f51f 7fe9 b1bf
00000700: b5e5 7048 9683 dcbf 283c 4b86 8c83 b13f
00000710: 1527 5489 96e4 dbbf 27cc ecea 471d d4bf
00000720: dcde ff4a 19ff c8bf c716 3111 1e17 a03f
00000730: a522 a72a 925a 943f edcb 6cde 0e11 bd3f
00000740: 203c d9e1 bfa1 b7bf 0223 46b1 1065 b83f
00000750: 8992 ab54 a6ab c53f 3d43 c574 2300 b6bf
00000760: 9f5a 5a7d 9c14 bebf 1d76 f407 f3fc a63f
00000770: 914f e3f5 b2fd c53f 5fbd 85c1 20e4 6e3f
00000780: 5a51 cb2e e492 b53f 35ca 144b 1722 9e3f
00000790: 1c33 0266 bd34 b6bf 846a e17b 9b0b 7ebf
000007a0: 25df ed91 1fa8 9f3f dd46 b519 07d3 b13f
000007b0: f216 3bd6 2aa5 9fbf edbd 04e9 d255 a8bf
000007c0: 7be9 ea18 99b5 cc3f bcb7 fd62 3e9e 9d3f
000007d0: 39d1 ee79 5718 c13f b787 c7e7 f1b8 783f
000007e0: 5864 6762 7837 da3f a519 67e7 e291 bbbf
000007f0: 0781 869f a0f7 c2bf 5f0a cdb9 0e84 ba3f

lstm.weight_hh_l0 f8 [256, 64]
0.05110757052898407 0.058809518814086914 0.07618594169616699 -0.04777313768863678 -0.04342286288738251 -0.040181756019592285 -0.0981566458940506 0.09073533117771149
-0.012593105435371399 0.12016409635543823 -0.04496470093727112 -0.04882180690765381 -0.08200913667678833 0.11514829099178314 0.017603039741516113 0.05277678370475769
-0.05275653302669525 0.04989457130432129 0.02918483316898346 -0.11636526882648468 -0.0932876467704773 -0.06095437705516815 -0.05855254828929901 -0.11406037211418152
-0.03399984538555145 -0.11225944757461548 -0.11579334735870361 -0.08980047702789307 -0.008508935570716858 -0.09239310026168823 0.03432701528072357 -0.0865948498249054
-0.09545283019542694 0.013349130749702454 0.10839150846004486 -0.09194111824035645 0.10857038199901581 -0.03701208531856537 0.006186544895172119 0.04804953932762146
-0.015465602278709412 -0.07252638041973114 -0.047931522130966187 -0.09368768334388733 0.007377922534942627 0.06077916920185089 -0.05352295935153961 0.05404341220855713
-0.09324759244918823 -0.010475486516952515 -0.06737470626831055 -0.07742628455162048 0.04397974908351898 -0.032456234097480774 0.03384864330291748 0.03451886773109436
0.08749617636203766 0.026875406503677368 0.052912235260009766 0.047411590814590454 0.09599941968917847 0.09197819232940674 -0.056770533323287964 0.07104764878749847
0.099442258477211 -0.09969647228717804 -0.10231059789657593 0.008004158735275269 0.036744147539138794 -0.08298419415950775 -0.09824320673942566 0.0867316722869873
-0.11168082058429718 0.11397440731525421 0.07045657932758331 0.047099530696868896 -0.1097506433725357 0.08309642970561981 0.1108194887638092 -0.020870104432106018
-0.0489608496427536 -0.1219630092382431 0.0850042849779129 -0.09914296865463257 -0.006083682179450989 0.019624337553977966 0.02903909981250763 -0.1031421422958374
-0.09967918694019318 0.10478256642818451 0.1131477952003479 0.11762882769107819 -0.06246614456176758 -0.06499293446540833 0.11810144782066345 -0.00919923186302185
-0.067972332239151 -0.008579164743423462 0.06268718838691711 0.05111624300479889 -0.018660232424736023 -0.06528845429420471 -0.018748119473457336 0.04193393886089325
-0.018486469984054565 -0.045359253883361816 0.06622323393821716 -0.03336051106452942 -0.03529694676399231 -0.06273205578327179 0.011347487568855286 -0.05151008069515228
0.10573102533817291 -0.11237160861492157 -0.044786497950553894 -0.07686059176921844 0.09706690907478333 -0.11001609265804291 -0.00620269775390625 -0.10022756457328796
0.09445129334926605 -0.06650541722774506 0.02586527168750763 0.07415515184402466 0.11524821817874908 -0.032197266817092896 -0.11019240319728851 0.033714309334754944
0.12199410796165466 0.08777695894241333 0.09936076402664185 -0.0936034619808197 0.12073561549186707 -0.1142859011888504 0.023019999265670776 -0.08866375684738159
0.08152730762958527 -0.06937094032764435 -0.08520859479904175 0.10083024203777313 -0.10921351611614227 0.017584294080734253 0.1236829161643982 -0.022652029991149902
-0.014654606580734253 0.006089493632316589 0.11817862093448639 -0.030547425150871277 -0.009706884622573853 0.044942498207092285 0.05343593657016754 -0.051461219787597656
0.10977314412593842 0.016868799924850464 0.09337377548217773 0.05351106822490692 0.06498995423316956 -0.08811160922050476 0.024518728256225586 -0.05765676498413086
-0.09493277966976166 -0.10983972251415253 -0.06450304388999939 0.003792509436607361 -0.06114575266838074 0.11104831099510193 -0.10414201021194458 0.12263718247413635
0.01244671642780304 -0.12001033127307892 -0.09894731640815735 -0.061894580721855164 0.062004074454307556 0.07249800860881805 -0.0013308823108673096 -0.10414932668209076
-0.12238958477973938 -0.05694635212421417 0.11548550426959991 0.11975543200969696 -0.06609396636486053 0.1190880835056305 -0.1157066822052002 -0.09880691766738892
0.030382394790649414 0.01584365963935852 0.022582605481147766 -0.12494693696498871 0.09040229022502899 -0.07527367770671844 0.042004674673080444 0.03695119917392731
0.07927784323692322 0.021311774849891663 0.013831302523612976 0.08336995542049408 0.08138607442378998 0.11643211543560028 0.053882136940956116 0.09887342154979706
0.11597435176372528 -0.0025074928998947144 -0.052051812410354614 -0.0053821951150894165 -0.010677516460418701 -0.0679207593202591 0.002091526985168457 -0.09873765707015991
0.08288158476352692 0.016610264778137207 0.06668302416801453 0.04822841286659241 -0.02459082007408142 0.1181756854057312 -0.12221497297286987 -0.01168486475944519
0.10659319162368774 0.12477368116378784 -0.11120539903640747 0.008698001503944397 -0.06609384715557098 0.05723273754119873 0.042563557624816895 -0.0925457626581192
-0.075539231300354 -0.016069963574409485 -0.11598028242588043 0.07436643540859222 -0.025346174836158752 -0.08869624137878418 0.07041056454181671 -0.09086047112941742
-0.043420031666755676 -0.050177618861198425 -0.022104784846305847 -0.0029018819332122803 -0.05516152083873749 0.08110712468624115 0.09749884903430939 0.09314890205860138
-0.036080360412597656 -0.11137339472770691 -0.06697829067707062 -0.03153529763221741 -0.08727803826332092 0.10062609612941742 0.0569591224193573 0.07857456803321838
0.06473787128925323 0.02597913146018982 0.09539712965488434 -0.024650081992149353 -0.03973834216594696 0.08775562047958374 -0.04665902256965637 -0.07849588990211487
00000000: 0000 0080 c52a aa3f 0000 0000 481c ae3f
00000010: 0000 0000 ec80 b33f 0000 0080 b875 a8bf
00000020: 0000 0080 853b a6bf 0000 0000 b492 a4bf
00000030: 0000 0040 cb20 b9bf 0000 0040 6e3a b73f
00000040: 0000 0000 6aca 89bf 0000 0000 13c3 be3f
00000050: 0000 0000 9d05 a7bf 0000 0000 2cff a8bf
00000060: 0000 0000 8dfe b4bf 0000 00c0 5b7a bd3f
00000070: 0000 0000 8806 923f 0000 0000 8f05 ab3f
00000080: 0000 0080 e702 abbf 0000 0000 c88b a93f
00000090: 0000 0000 a1e2 9d3f 0000 0040 1dca bdbf
000000a0: 0000 0000 b3e1 b7bf 0000 0080 6935 afbf
000000b0: 0000 0080 99fa adbf 0000 0080 0f33 bdbf
000000c0: 0000 0080 6d68 a1bf 0000 0000 09bd bcbf
000000d0: 0000 0000 a2a4 bdbf 0000 0000 2afd b6bf
000000e0: 0000 0000 226d 81bf 0000 0000 13a7 b7bf
000000f0: 0000 0080 4f93 a13f 0000 0080 142b b6bf
00000100: 0000 00c0 986f b8bf 0000 0000 ca56 8b3f
00000110: 0000 00c0 8bbf bb3f 0000 0000 7489 b7bf
00000120: 0000 00c0 44cb bb3f 0000 0080 3ff3 a2bf
00000130: 0000 0000 1057 793f 0000 0000 f399 a83f
00000140: 0000 0000 6eac 8fbf 0000 00c0 1691 b2bf
00000150: 0000 0000 7b8a a8bf 0000 0080 eafb b7bf
00000160: 0000 0000 5038 7e3f 0000 0080 721e af3f
00000170: 0000 0080 5c67 abbf 0000 0000 94ab ab3f
00000180: 0000 0000 13df b7bf 0000 0000 2c74 85bf
00000190: 0000 0000 783f b1bf 0000 0080 35d2 b3bf
000001a0: 0000 0080 8384 a63f 0000 0080 1a9e a0bf
000001b0: 0000 0000 9c54 a13f 0000 0000 75ac a13f
000001c0: 0000 0040 2666 b63f 0000 0000 3a85 9b3f
000001d0: 0000 0000 5017 ab3f 0000 0000 5546 a83f
000001e0: 0000 0000 6b93 b83f 0000 0000 e28b b73f
000001f0: 0000 0000 0711 adbf 0000 00c0 2d30 b23f
00000200: 0000 0040 0c75 b93f 0000 0040 b585 b9bf
00000210: 0000 0000 0731 babf 0000 0000 7c64 803f
00000220: 0000 0000 21d0 a23f 0000 00c0 733e b5bf
00000230: 0000 0080 7726 b9bf 0000 0000 0c34 b63f
00000240: 0000 0040 1d97 bcbf 0000 0040 6d2d bd3f
00000250: 0000 0040 7109 b23f 0000 0000 6e1d a83f
00000260: 0000 0040 9e18 bcbf 0000 00c0 ce45 b53f
00000270: 0000 0080 aa5e bc3f 0000 0000 f95e 95bf
00000280: 0000 0080 6511 a9bf 0000 00c0 f738 bfbf
00000290: 0000 0040 d7c2 b53f 0000 0000 6f61 b9bf
000002a0: 0000 0000 34eb 78bf 0000 0000 6718 943f
000002b0: 0000 0000 6dbc 9d3f 0000 0000 8667 babf
000002c0: 0000 0040 9384 b9bf 0000 00c0 07d3 ba3f
000002d0: 0000 0000 41f7 bc3f 0000 0040 ec1c be3f
000002e0: 0000 0000 90fb afbf 0000 0080 60a3 b0bf
000002f0: 0000 0080 e53b be3f 0000 0000 0cd7 82bf
00000300: 0000 0080 a266 b1bf 0000 0000 f491 81bf
00000310: 0000 0080 440c b03f 0000 0080 e82b aa3f
00000320: 0000 0000 ab1b 93bf 0000 0080 beb6 b0bf
00000330: 0000 0000 b532 93bf 0000 0080 5d78 a53f
00000340: 0000 0000 1eee 92bf 0000 0000 5439 a7bf
00000350: 0000 0080 01f4 b03f 0000 0000 a114 a1bf
00000360: 0000 0000 7112 a2bf 0000 0040 350f b0bf
00000370: 0000 0000 5a3d 873f 0000 0080 875f aabf
00000380: 0000 0040 3011 bb3f 0000 00c0 62c4 bcbf
00000390: 0000 0080 41ee a6bf 0000 00c0 22ad b3bf
000003a0: 0000 0080 60d9 b83f 0000 00c0 032a bcbf
000003b0: 0000 0000 0068 79bf 0000 0080 83a8 b9bf
000003c0: 0000 00c0 f52d b83f 0000 00c0 7f06 b1bf
000003d0: 0000 0000 6d7c 9a3f 0000 0000 d5fb b23f
000003e0: 0000 0040 e880 bd3f 0000 0000 297c a0bf
000003f0: 0000 00c0 9135 bcbf 0000 0080 0043 a13f
00000400: 0000 0080 013b bf3f 0000 0000 8d78 b63f
00000410: 0000 0000 b56f b93f 0000 0080 65f6 b7bf
00000420: 0000 0080 87e8 be3f 0000 0040 d741 bdbf
00000430: 0000 0000 8e92 973f 0000 0000 abb2 b6bf
00000440: 0000 0040 f9de b43f 0000 0040 4bc2 b1bf
00000450: 0000 0000 3bd0 b5bf 0000 00c0 02d0 b93f
00000460: 0000 00c0 6af5 bbbf 0000 0000 9e01 923f
00000470: 0000 0000 afa9 bf3f 0000 0000 1832 97bf
00000480: 0000 0000 3c03 8ebf 0000 0000 4cf1 783f
00000490: 0000 0040 f440 be3f 0000 0000 d347 9fbf
000004a0: 0000 0000 34e1 83bf 0000 0000 b402 a73f
000004b0: 0000 0080 f45b ab3f 0000 0000 2059 aabf
000004c0: 0000 00c0 171a bc3f 0000 0000 0e46 913f
000004d0: 0000 0000 58e7 b73f 0000 0080 cd65 ab3f
000004e0: 0000 0080 2ea3 b03f 0000 0080 7b8e b6bf
000004f0: 0000 0000 701b 993f 0000 0000 3085 adbf
00000500: 0000 00c0 834d b8bf 0000 00c0 741e bcbf
00000510: 0000 0080 4583 b0bf 0000 0000 7811 6f3f
00000520: 0000 0000 7f4e afbf 0000 0080 a96d bc3f
00000530: 0000 0000 0da9 babf 0000 0080 2665 bf3f
00000540: 0000 0000 aa7d 893f 0000 0040 ffb8 bebf
00000550: 0000 0080 9c54 b9bf 0000 0080 a5b0 afbf
00000560: 0000 0080 ffbe af3f 0000 00c0 3a8f b23f
00000570: 0000 0000 20ce 55bf 0000 00c0 87a9 babf
00000580: 0000 0080 ec54 bfbf 0000 0080 1228 adbf
00000590: 0000 0040 7590 bd3f 0000 00c0 4aa8 be3f
000005a0: 0000 00c0 88eb b0bf 0000 0080 8e7c be3f
000005b0: 0000 0000 f49e bdbf 0000 0000 694b b9bf
000005c0: 0000 0000 901c 9f3f 0000 0000 5239 903f
000005d0: 0000 0000 e51f 973f 0000 00c0 85fc bfbf
000005e0: 0000 00c0 9a24 b73f 0000 00c0 2245 b3bf
000005f0: 0000 0000 a381 a53f 0000 0080 44eb a23f
00000600: 0000 0080 8d4b b43f 0000 0000 c1d2 953f
00000610: 0000 0000 9653 8c3f 0000 00c0 bb57 b53f
00000620: 0000 00c0 b7d5 b43f 0000 00c0 7ece bd3f
00000630: 0000 0080 7096 ab3f 0000 00c0 c44f b93f
00000640: 0000 00c0 7eb0 bd3f 0000 0000 988a 64bf
00000650: 0000 0000 89a6 aabf 0000 0000 a40b 76bf
00000660: 0000 0000 18de 85bf 0000 0040 4163 b1bf
00000670: 0000 0000 4022 613f 0000 0000 df46 b9bf
00000680: 0000 0040 ba37 b53f 0000 0000 4802 913f
00000690: 0000 0080 2312 b13f 0000 0000 65b1 a83f
000006a0: 0000 0000 562e 99bf 0000 0000 c340 be3f
000006b0: 0000 0000 7b49 bfbf 0000 0000 3cee 87bf
000006c0: 0000 0000 b149 bb3f 0000 0000 2bf1 bf3f
000006d0: 0000 0000 f577 bcbf 0000 0000 42d0 813f
000006e0: 0000 00c0 86eb b0bf 0000 0000 9c4d ad3f
000006f0: 0000 0000 e4ca a53f 0000 0040 14b1 b7bf
00000700: 0000 0000 8a56 b3bf 0000 0000 a574 90bf
00000710: 0000 0040 e2b0 bdbf 0000 00c0 ad09 b33f
00000720: 0000 0000 59f4 99bf 0000 0000 ccb4 b6bf
00000730: 0000 0040 6d06 b23f 0000 00c0 a142 b7bf
00000740: 0000 0080 263b a6bf 0000 0080 e1b0 a9bf
00000750: 0000 0000 a3a2 96bf 0000 0000 b0c5 67bf
00000760: 0000 0080 213e acbf 0000 00c0 6fc3 b43f
00000770: 0000 0040 aff5 b83f 0000 0040 9bd8 b73f
00000780: 0000 0000 2079 a2bf 0000 0080 f782 bcbf
00000790: 0000 0040 7d25 b1bf 0000 0000 6525 a0bf
000007a0: 0000 0080 da57 b6bf 0000 00c0 a1c2 b93f
000007b0: 0000 0000 bf29 ad3f 0000 0080 761d b43f
000007c0: 0000 0040 a992 b03f 0000 0000 469a 9a3f
000007d0: 0000 0040 f26b b83f 0000 0000 df3d 99bf
000007e0: 0000 0080 9558 a4bf 0000 0000 2777 b63f
000007f0: 0000 0000 b1e3 a7bf 0000 0080 4e18 b4bf

lstm.bias_ih_l0 f8 [256]
-0.058858740213532094 0.058755026512891495 -0.02224366147481036 0.1243503790430411 0.03795594195128165 -0.0458517396765149 0.06131410855925035 0.12005315918373503
0.139043367233237 -0.024821578947112045 0.029781394257514186 0.2561982414625721 0.10790487542386967 0.07145683109402434 -0.15801873439062414 0.17480403735913447
-0.0033520767075043718 0.06426468212704448 0.03630730996660755 -0.23247570931666794 0.13331818446930604 0.0057556496194398725 0.18139411579938883 0.15256464805409373
0.2870932472625473 0.18064132607457295 0.29394618600138517 0.21028530141634172 0.24366290540291013 -0.14985209822637882 -0.014041615952572794 -0.030114250889207776
-0.15991609179581406 -0.025169633907383977 0.1552069788293917 0.19239800303574456 -0.024722821651601966 -0.056933142800046056 -0.08016103980409309 -0.11527927364462824
0.35030870537434905 0.028919495582447382 0.12161028968027304 -0.06823250370996582 0.11506043564222482 0.2066898197876339 0.27627726542035247 0.14595860684200693
0.1877081183416973 0.33138684910603194 -0.09175961537736406 -0.056782309538902634 0.24142151217455704 0.2502453519637755 0.1664830603678464 -0.07688400498903065
0.016667399060105788 -0.12616899572608686 0.1737781252700402 0.07539506290957035 -0.08228306370589614 0.11359619375421767 0.16314714815001927 0.2038563053799597
-0.10687810182571411 -0.03909724950790405 -0.047346606850624084 -0.07762229442596436 0.048361241817474365 0.10938481986522675 0.05803358554840088 0.03343212604522705
-0.01400814950466156 0.04498182237148285 0.11080755293369293 0.07332193851470947 0.1236160546541214 -0.05262608826160431 -0.0349784791469574 -0.055620089173316956
0.07608135044574738 0.07116279006004333 0.11522553861141205 0.10260921716690063 -0.12262450158596039 -0.09496442973613739 -0.10929284989833832 0.0975460410118103
-0.006604477763175964 -0.12174539268016815 -0.09209483861923218 -0.03699973225593567 -0.09519661962985992 -0.024169504642486572 0.09590734541416168 0.03423331677913666
-0.0022496432065963745 0.019720405340194702 -0.05824735760688782 -0.12499396502971649 0.04595497250556946 0.013956993818283081 0.11493270099163055 0.06269602477550507
-0.10826683044433594 0.038088783621788025 -0.11225356161594391 -0.08053617179393768 -0.12476754188537598 -0.0447811633348465 0.11819033324718475 0.01422177255153656
-0.04897569119930267 0.07233840227127075 -0.08769117295742035 0.04409162700176239 -0.10143764317035675 0.010204896330833435 -0.08830495178699493 0.08080381155014038
0.05125871300697327 -0.04108354449272156 0.11515471339225769 -0.09000208973884583 -0.06029954552650452 0.041101932525634766 0.09281480312347412 -0.010857775807380676
0.167571513446772 -0.07288325167036416 0.018392470692927414 0.17041467364222118 -0.15721344001575263 -0.08989655475929675 -0.059193132450048175 0.1045775911311363
0.05525922468648058 0.04128072573879879 0.18284259745792547 -0.11847216634928884 -0.05050372627251561 0.09036778641729451 -0.034857074789914747 -0.1710125945248959
-0.04590064937169582 0.10108894855658167 -0.1097686796894074 0.1896930455686116 0.06479619428615273 0.0908763149508008 0.09836828823364746 -0.11422394530760716
-0.06071173529895328 0.12495051722590558 0.07451891175178511 -0.07810211015630532 -0.12800023359201212 -0.013012172529692181 -0.06740688879739584 -0.14227680702326914
-0.1713669229152787 -0.16775455904252135 -0.09884369380184502 0.10857389762508235 0.011863482560056985 0.06314186254184678 0.04416102140846902 -0.09176795803850464
-0.2738004444965599 -0.051066053259556876 0.08143334967049652 0.19670309562651347 0.12927578622403604 -0.009556810538120146 0.10804698611714116 -0.07626098589009118
-0.14039164902213258 -0.019620012060369178 -0.011028710894325848 0.19883314693399692 0.08428878223207517 -0.008911107960654143 -0.040769070905722266 -0.2352062750447217
0.06678034440491915 0.1178066270143401 -0.08846828228731014 0.020075982322584295 0.07313177336690865 -0.08037776899557847 -0.10967642104663251 0.05696617082007362
0.06814399369365966 0.032002501672095444 0.12397701824683705 0.11375841347164523 -0.03934585918227659 -0.030041898646220266 0.11432177673246588 0.16372896267509504
0.24528347289627417 -0.039918981480009955 0.20857497175461231 0.10845685691875878 0.2026113402468211 0.020560600256723488 -0.06925628036598062 0.14562363172334183
0.06778983301237496 0.1404223801796432 0.15862719883428514 -0.024123158779099298 -0.04445109875392735 0.06824913664850303 0.18371396955718075 0.16877011613622953
0.11455838260288692 0.2367437484893814 0.0924482990267353 0.07976585137903981 0.23913734306015663 -0.04011153461363115 0.005978912203310027 0.15982701718443382
-0.0030878920334244378 -0.06932529584910792 0.0028398435513557626 0.12674631923842872 0.0900547135085947 -0.16351720584252932 -0.08366571256698205 -0.06461449560726773
-0.05917682557078071 -0.18108341692992003 0.09837062794459728 0.029983760760417342 -0.048054648175355916 0.16034040239929673 0.030733089345967187 0.0734038559171888
0.17924770258384456 0.5645786878047615 -0.10932323390629384 0.06002913717507909 0.38232462476405177 0.1450059687446991 0.07147640203215247 0.0873221826152519
-0.11955608794279184 0.01774578395464302 0.02031422340218977 0.3010604377479692 -0.0019631807284175547 0.15947607741235204 0.2956272029445607 0.16490938211048137
00000000: ff0c 9a98 bb22 aebf 386c b28a 2315 ae3f
00000010: d977 4fda 0ac7 96bf 3d2d 3c2b 6dd5 bf3f
00000020: 0740 bd12 f66e a33f 302c c014 e179 a7bf
00000030: 403b 1716 9064 af3f 7fc2 79c8 cdbb be3f
00000040: 4909 7f4d 2ccc c13f 4a70 40f7 d36a 99bf
00000050: ae12 7689 037f 9e3f 20f7 174f 8d65 d03f
00000060: f443 0667 a79f bb3f c8e7 9fb0 fe4a b23f
00000070: 2278 2e38 f539 c4bf 8247 d58b fa5f c63f
00000080: 0424 a37a d075 6bbf 8e03 0674 a673 b03f
00000090: db1a d329 df96 a23f 2c93 5098 c3c1 cdbf
000000a0: 6efe 20fd 9110 c13f 8ca8 1f6e 3c93 773f
000000b0: 81c9 8521 ec37 c73f bb83 f506 3d87 c33f
000000c0: 0749 f95a bc5f d23f 38ef e545 411f c73f
000000d0: 833b eaa9 03d0 d23f 08d3 34f6 a0ea ca3f
000000e0: 7417 fa98 5830 cf3f 7544 8f82 5a2e c3bf
000000f0: 39f3 64ca d9c1 8cbf 71ca d92a 45d6 9ebf
00000100: f2fe 2e68 2178 c4bf 9222 f089 11c6 99bf
00000110: 2773 1781 d2dd c33f 7657 6d6d 7fa0 c83f
00000120: 7679 d579 f050 99bf d5f6 c444 5726 adbf
00000130: 1237 5f14 6f85 b4bf 13d7 3546 f182 bdbf
00000140: 3d90 4534 756b d63f 2f45 f97e 129d 9d3f
00000150: fcaa 0819 da21 bf3f 6160 f573 af77 b1bf
00000160: 2a99 25c8 9974 bd3f f8b6 33e0 cf74 ca3f
00000170: 5cf5 e6d6 86ae d13f d962 7a89 c5ae c23f
00000180: 2753 bcd2 d106 c83f 8108 cf2f 7135 d53f
00000190: 4daa 23e3 8e7d b7bf c2ff eb24 9212 adbf
000001a0: 6698 ab6d e6e6 ce3f 6844 aa14 0504 d03f
000001b0: 2717 cf21 514f c53f 5d6d 038f abae b3bf
000001c0: f279 7d37 4211 913f 94d3 343f 4e26 c0bf
000001d0: 03c3 6592 5c3e c63f c2f9 7941 174d b33f
000001e0: 8aaa a1bb 8010 b5bf 96db 1fe1 a314 bd3f
000001f0: 4fb8 de78 01e2 c43f 445c 58a2 f617 ca3f
00000200: 0000 0000 5d5c bbbf 0000 0000 8e04 a4bf
00000210: 0000 0080 d03d a8bf 0000 0000 0edf b3bf
00000220: 0000 0000 cec2 a83f 0000 00c0 a400 bc3f
00000230: 0000 0000 94b6 ad3f 0000 0000 041e a13f
00000240: 0000 0000 4eb0 8cbf 0000 0080 db07 a73f
00000250: 0000 0040 e25d bc3f 0000 0000 3ac5 b23f
00000260: 0000 0040 4da5 bf3f 0000 0080 cef1 aabf
00000270: 0000 0000 b3e8 a1bf 0000 0080 3c7a acbf
00000280: 0000 0040 117a b33f 0000 0080 b937 b23f
00000290: 0000 00c0 6b7f bd3f 0000 0000 9944 ba3f
000002a0: 0000 00c0 5164 bfbf 0000 00c0 964f b8bf
000002b0: 0000 00c0 9dfa bbbf 0000 0000 c7f8 b83f
000002c0: 0000 0000 4c0d 7bbf 0000 00c0 b42a bfbf
000002d0: 0000 0000 8793 b7bf 0000 0000 a1f1 a2bf
000002e0: 0000 0040 ce5e b8bf 0000 0000 e4bf 98bf
000002f0: 0000 0040 628d b83f 0000 0080 0787 a13f
00000300: 0000 0000 d86d 62bf 0000 0000 9631 943f
00000310: 0000 0000 99d2 adbf 0000 00c0 9aff bfbf
00000320: 0000 0000 6987 a73f 0000 0000 7c95 8c3f
00000330: 0000 00c0 3a6c bd3f 0000 00c0 d80c b03f
00000340: 0000 0000 60b7 bbbf 0000 0080 5f80 a33f
00000350: 0000 0040 a6bc bcbf 0000 00c0 049e b4bf
00000360: 0000 0000 c4f0 bfbf 0000 0080 8eed a6bf
00000370: 0000 00c0 b841 be3f 0000 0000 4e20 8d3f
00000380: 0000 0080 5713 a9bf 0000 0000 c584 b23f
00000390: 0000 00c0 ed72 b6bf 0000 0080 2d93 a63f
000003a0: 0000 0040 d1f7 b9bf 0000 0000 4ee6 843f
000003b0: 0000 0040 279b b6bf 0000 0000 8faf b43f
000003c0: 0000 0000 953e aa3f 0000 0000 e708 a5bf
000003d0: 0000 0080 c77a bd3f 0000 0080 600a b7bf
000003e0: 0000 0000 95df aebf 0000 0000 500b a53f
000003f0: 0000 0000 b6c2 b73f 0000 0000 9a3c 86bf
00000400: c45f ffbc fb72 c53f a2b0 590e 7aa8 b2bf
00000410: ab9c 79d0 79d5 923f 20a3 06e5 25d0 c53f
00000420: 0bfe adeb 911f c4bf 44d9 b6ea 7503 b7bf
00000430: 2ca0 0af0 8f4e aebf 187d cdd5 98c5 ba3f
00000440: 0f58 a9e5 ef4a ac3f bcae 014e bf22 a53f
00000450: b6e0 32e0 6267 c73f 0adb f41f 3154 bebf
00000460: 5b4b 55d9 9fdb a9bf 8231 46df 5722 b73f
00000470: b289 8358 c9d8 a1bf f721 589e bde3 c5bf
00000480: 234c d537 4a80 a7bf 879c 0920 f7e0 b93f
00000490: 681f 64d9 cc19 bcbf 2e77 7f99 dc47 c83f
000004a0: fb41 5dbf 7b96 b03f e5d6 b190 ab43 b73f
000004b0: 0451 ed04 aa2e b93f f829 84cd c73d bdbf
000004c0: c650 2fcb 9b15 afbf 3282 1ad1 c1fc bf3f
000004d0: 254d e8e0 ab13 b33f 21b3 def8 7ffe b3bf
000004e0: 123b 94c8 4f62 c0bf 2831 b83b 20a6 8abf
000004f0: c6f0 e8ee 9341 b1bf 9776 925c 2036 c2bf
00000500: 6dc5 c4f0 59ef c5bf 08d8 6b3c fb78 c5bf
00000510: 8a75 4b00 d24d b9bf 34bd 7fbb 7fcb bb3f
00000520: 829a e5ac e14b 883f c431 a0aa 102a b03f
00000530: 3227 6afd 459c a63f 8d98 98da 1a7e b7bf
00000540: 1d8d af4c f285 d1bf c805 5f69 5425 aabf
00000550: b775 a3e5 d0d8 b43f 6971 5e29 912d c93f
00000560: 259b ffe4 1b8c c03f 29ec b865 8592 83bf
00000570: e1f2 cd9f f7a8 bb3f 15d1 5b08 d785 b3bf
00000580: ae3d 9782 5af8 c1bf d1ec 95b8 4417 94bf
00000590: 6987 dd84 3896 86bf 9d9c b853 5d73 c93f
000005a0: ea3e 1b1b f393 b53f 21da 18aa fc3f 82bf
000005b0: 84ee 7404 afdf a4bf 98c6 903d 3d1b cebf
000005c0: 3418 3c43 8418 b13f 5156 473a 9328 be3f
000005d0: 5d44 287b dba5 b6bf d3d3 0a5e cc8e 943f
000005e0: 96cb e88e c3b8 b23f f054 2931 a393 b4bf
000005f0: fda0 8901 c113 bcbf f216 4d81 ab2a ad3f
00000600: f145 5580 e271 b13f 97c7 24c4 a162 a03f
00000610: 0865 d336 f5bc bf3f 846c 8179 451f bd3f
00000620: 1b80 d7f4 2325 a4bf f3f2 c7b0 4dc3 9ebf
00000630: a65b 4924 3144 bd3f 1f7c 0c16 12f5 c43f
00000640: cc5d 2be7 7265 cf3f d27d e4bf 4270 a4bf
00000650: 9e9f 39ad 95b2 ca3f 9436 7e1d d4c3 bb3f
00000660: 6254 141c 2bef c93f 6849 c186 d60d 953f
00000670: 0fe9 3693 c7ba b1bf 6564 e38f cba3 c23f
00000680: 8019 caab ac5a b13f fabf 3f4d 5cf9 c13f
00000690: 81ea 9f63 e54d c43f ba39 21c8 bdb3 98bf
000006a0: 8bb9 d65e 4bc2 a6bf c5b3 e281 c678 b13f
000006b0: cf80 8879 f083 c73f f571 ac58 429a c53f
000006c0: 0416 c3ba b253 bd3f 04ad a580 9e4d ce3f
000006d0: 1502 e414 b1aa b73f e1b4 02eb 886b b43f
000006e0: df0c d96d 0d9c ce3f 0041 b7c2 7f89 a4bf
000006f0: f3db 0f06 587d 783f 1085 e931 3675 c43f
00000700: 3e25 8269 c74b 69bf fd1a 7576 4dbf b1bf
00000710: a3f8 b865 9543 673f 0c3b 0230 3939 c03f
00000720: 7ebc 5e61 d30d b73f bea6 b6bd 21ee c4bf
00000730: b68f 45bb 1d6b b5bf 7812 7b59 938a b0bf
00000740: 1be4 03c5 6c4c aebf a0ed c7cc bd2d c7bf
00000750: 20b6 e845 d12e b93f 6921 821f 10b4 9e3f
00000760: 26fa aa6c 9e9a a8bf a127 44c8 0886 c43f
00000770: 7f7a 95b6 7e78 9f3f 118b 9058 98ca b23f
00000780: 1f89 3db6 96f1 c63f 3f7b 0453 0711 e23f
00000790: a80b 5282 9bfc bbbf 53b8 f299 23bc ae3f
000007a0: f14a f4b3 0178 d83f 25dc bd3a 8e8f c23f
000007b0: 9af1 2909 474c b23f ae3f 8c1e bf5a b63f
000007c0: 7982 c04f 3a9b bebf e885 e866 f32b 923f
000007d0: b7c9 9f74 40cd 943f 62ce 8fff 9244 d33f
000007e0: 7a44 caa0 1615 60bf 487e 7d4c b669 c43f
000007f0: 261c 1d5c 8eeb d23f 35ea 7b29 c01b c53f

lstm.bias_hh_l0 f8 [256]
0.1413919748037858 -0.02199333781644662 0.11133475821055307 0.11284768097919083 0.15519270519018827 -0.1028806293325823 0.05087271589910965 0.15164335269378892
0.12918630870815193 -0.061175628987357004 -0.0007934341287914535 0.25680860792623306 0.25718590035673694 -0.0006449854409729425 -0.01479565733183122 0.15858005538262554
0.12319141537127545 0.2514950605164048 0.1997094799094633 -0.3330637776827195 -0.045470522190961905 0.15383196037326255 0.2002396888670562 0.11232330229088644
0.24916015097291322 0.2857416448640537 0.2165777477575182 0.1093356265716006 0.38605609209133557 0.009319885373283278 0.08133122480956481 0.1611041252704586
-0.18496056282128215 -0.016956188363141 0.21188068440724192 0.09486136465665153 0.12144937402138514 -0.03489618803949796 -0.09494299170838866 0.010977043255625938
0.3850995789018769 0.05604026460634193 -0.04086823178598172 -0.10782180446165048 -0.04079761911489563 0.019236296509397906 0.23106350647489038 0.13916475022121946
0.07706051447225819 0.2858772276050638 -0.010377817586837798 -0.20550074113089206 0.3586212758302202 0.1708541853959691 0.0780945875723591 -0.012533429780367863
-0.025663983572150446 -0.021292283761479906 0.08887092135730325 0.3030539009432471 -0.04705141383025492 0.1968462842340658 0.13931879069190758 0.07758914043435707
-0.11149357259273529 0.07162755727767944 0.029694482684135437 0.013105198740959167 -0.0663963258266449 0.058987975120544434 0.034470319747924805 0.0575716495513916
-0.08278699219226837 -0.029690593481063843 0.10949526727199554 -0.008892461657524109 0.09442788362503052 0.061851099133491516 0.0933169275522232 0.08416278660297394
0.11852975189685822 0.039597734808921814 -0.08077092468738556 -0.0670313835144043 -0.10762372612953186 0.08878648281097412 0.00011454522609710693 0.0727551281452179
0.09640949964523315 0.10823656618595123 -0.02363601326942444 0.06112608313560486 0.02008645236492157 0.05638408660888672 -0.07444831728935242 -0.026540443301200867
0.0688512772321701 0.03576017916202545 -0.08635720610618591 0.008324801921844482 0.052061527967453 0.016809076070785522 -0.010807126760482788 -0.08406302332878113
0.10345064103603363 0.08513385057449341 -0.06675899028778076 0.010108262300491333 -0.08838541805744171 0.030852362513542175 0.0014812201261520386 0.09965091943740845
-0.00431591272354126 0.042379289865493774 -0.04097829759120941 -0.0434609055519104 0.05263160169124603 -0.08818472921848297 0.011969611048698425 0.06434208154678345
-0.07148952782154083 -0.09953814744949341 -0.05808168649673462 0.05402776598930359 -0.05961249768733978 0.08133447170257568 -0.07181695103645325 0.02231675386428833
0.10765053192039872 -0.025315139058591358 -0.05419627108639889 0.05890015001684644 -0.11700203068538467 0.06991473335906523 -0.01949597709364123 -0.0248405137558715
-0.06484009632124853 0.1257525922272557 0.16175895938591206 -0.04974848776042025 0.059762914509838706 0.030731521377851595 0.029717315859879745 -0.03670544845251276
-0.1664467518954973 0.02296750993410897 0.03341937964058044 0.2782044231416228 -0.043715253620340226 0.06482968123040071 0.025028721645246266 0.034210917186862276
0.019760197589076826 0.03477095465723853 0.09736760726837092 -0.006943820246942605 -0.10032466453454882 -0.0125606673455185 -0.015159602954499595 0.017895163701789285
-0.18460518902569875 -0.10394312274701094 0.043645620277440726 -0.06954377994430722 -0.03341037276850297 0.05249842503707771 0.10636307269039602 0.0076510695284049135
-0.23438428033678557 0.028693350803669172 0.014839836777772715 0.2857542230602945 0.048591496887831556 -0.004354025403804845 -0.007305033550485745 -0.15413366452759467
-0.014630646719964911 -0.12977423848267716 0.03451719493415028 0.14167794013448717 -0.033070319540231714 0.014476204928445036 0.031756802874529075 0.006941990197857556
0.11021632031415231 0.03140088782614386 -0.01611880845326789 -0.10223690618049078 0.05008933295248172 -0.06977805149775235 0.06758448445759417 0.15165437773115858
-0.037802398127246915 0.08509364027339779 -0.021963389863783565 0.1810035541433752 0.05091767142971503 -0.13969499901758084 0.08250442992117346 0.20802221728897338
0.19463907516067824 -0.021910570549376746 0.0285619409871708 0.18474414141220477 0.26665288027348333 -0.060309625768857913 -0.11761132330039775 0.028997980006156165
0.16821586615160328 0.13466261944222369 0.1831904815624801 -0.2636634674930141 0.12615682570744033 -0.028612061896000823 0.2578887760328189 0.12756850974337122
-0.05273920419578046 0.27164235741233717 0.03758226821447211 -0.011258055686354464 0.10066702116646382 -0.0020228254976509042 -0.005915328772069573 0.10952527165049218
-0.11091709027465786 0.10752199812386327 0.09305007270975854 0.07649160176920847 0.06794852795313672 -0.12867000592568892 0.030893669633260613 0.021222153333771945
-0.032882758068759975 -0.18470200001307274 0.15560223299754522 0.07848864977180228 -0.08684517218124653 0.1023287215578476 0.18645593096640922 -0.05850721323755032
-0.062190298810432885 0.43746266331060046 -0.14839452559139907 -0.028750923235419296 0.40745026241454213 0.12097620719188709 0.2757926753637946 -0.0606764185829417
-0.17773932585306518 -0.07318323251626506 0.15276654743497028 0.18042653758240357 -0.08708291990326085 0.1879573224532445 0.3105911278293563 0.17970635438526153
00000000: a27c d9d9 2119 c23f 9c27 9bea 6b85 96bf
00000010: f121 6c49 6f80 bc3f 472d 3ceb 95e3 bc3f
00000020: f94f afc4 5add c33f 3c16 608a 6256 babf
00000030: 6a3b 1716 fd0b aa3f 04e1 3ca4 0c69 c33f
00000040: 5709 7f4d 2d89 c03f 1738 a07b 6952 afbf
00000050: cb81 3dd1 ceff 49bf 1cf7 175f 8d6f d03f
00000060: 6891 c1d9 bb75 d03f 1c49 0cb0 8722 45bf
00000070: 5180 e782 2f4d 8ebf 8847 d5eb 594c c43f
00000080: 82e6 2afc 7889 bf3f 0481 01bd 7e18 d03f
00000090: b4c6 748a 1490 c93f a549 28bc ea50 d5bf
000000a0: bd04 7c8b e947 a7bf 51fd 7003 c4b0 c33f
000000b0: d3c9 8541 74a1 c93f 3c07 eb4d 38c1 bc3f
000000c0: 2492 f2d5 7ae4 cf3f 83f7 f252 9749 d23f
000000d0: e276 d4d3 d1b8 cb3f 43a6 696c 6bfd bb3f
000000e0: e30b 7d9c 24b5 d83f 27b7 0bd7 4d16 833f
000000f0: 6261 b386 1fd2 b43f 78c6 a45a 0f9f c43f
00000100: 1cff 2ea8 c9ac c7bf 7022 f089 f65c 91bf
00000110: 2373 1701 e81e cb3f 09b0 da9a d548 b83f
00000120: 22a1 8a61 4e17 bf3f b9f8 c4c4 e9dd a1bf
00000130: b436 5f14 2f4e b8bf 6549 51ce 217b 863f
00000140: 4f90 45b4 78a5 d83f 30a2 7c3f 4fb1 ac3f
00000150: cba9 ee4d aeec a4bf f95f f5b3 359a bbbf
00000160: ecce b4ef 6ce3 a4bf 32b8 9d01 aeb2 933f
00000170: 24eb cd2d 7d93 cd3f 0163 7a89 26d0 c13f
00000180: 0ba6 78e5 3cba b33f 8f08 cfff cf4b d23f
00000190: d854 1d19 f740 85bf 3200 3b29 d94d cabf
000001a0: 3ecc d5a6 a6f3 d63f 4188 54c9 8cde c53f
000001b0: 102e 9ec3 01fe b33f 7e6d 1b78 20ab 89bf
000001c0: d286 82c8 a847 9abf f19c a6f9 a4cd 95bf
000001d0: 7985 cba4 3ec0 b63f 7b7e 5e30 3c65 d33f
000001e0: e254 4377 1f17 a8bf 6ced 8f50 4232 c93f
000001f0: b9b8 deb8 32d5 c13f 79b8 b0c4 e1dc b33f
00000200: 0000 00c0 d78a bcbf 0000 0000 2f56 b23f
00000210: 0000 0000 3b68 9e3f 0000 0000 e6d6 8a3f
00000220: 0000 0080 59ff b0bf 0000 0000 ac33 ae3f
00000230: 0000 0000 18a6 a13f 0000 0000 087a ad3f
00000240: 0000 0040 8731 b5bf 0000 0000 3667 9ebf
00000250: 0000 00c0 e107 bc3f 0000 0000 3636 82bf
00000260: 0000 0000 6d2c b83f 0000 0080 f2aa af3f
00000270: 0000 0040 9ee3 b73f 0000 0040 b18b b53f
00000280: 0000 0040 f757 be3f 0000 0080 2746 a43f
00000290: 0000 0040 67ad b4bf 0000 0000 f828 b1bf
000002a0: 0000 0080 3a8d bbbf 0000 0000 b6ba b63f
000002b0: 0000 0000 0007 1e3f 0000 0080 14a0 b23f
000002c0: 0000 0000 4bae b83f 0000 0040 64b5 bb3f
000002d0: 0000 0000 0a34 98bf 0000 0000 eb4b af3f
000002e0: 0000 0000 8b91 943f 0000 0000 60de ac3f
000002f0: 0000 0080 0b0f b3bf 0000 0000 6b2d 9bbf
00000300: 0000 00c0 3ca0 b13f 0000 0080 284f a23f
00000310: 0000 0080 811b b6bf 0000 0000 980c 813f
00000320: 0000 0000 cfa7 aa3f 0000 0000 6636 913f
00000330: 0000 0000 0c22 86bf 0000 0080 2785 b5bf
00000340: 0000 00c0 bd7b ba3f 0000 0000 55cb b53f
00000350: 0000 0000 1e17 b1bf 0000 0000 a4b3 843f
00000360: 0000 0040 6da0 b6bf 0000 0000 c397 9f3f
00000370: 0000 0000 b044 583f 0000 0000 b982 b93f
00000380: 0000 0000 90ad 71bf 0000 0000 bdb2 a53f
00000390: 0000 0080 1bfb a4bf 0000 0000 8240 a6bf
000003a0: 0000 0080 87f2 aa3f 0000 0040 4693 b6bf
000003b0: 0000 0000 8683 883f 0000 0000 b978 b03f
000003c0: 0000 0040 234d b2bf 0000 0000 557b b9bf
000003d0: 0000 0000 e2bc adbf 0000 0000 87a9 ab3f
000003e0: 0000 0080 8785 aebf 0000 0000 56d2 b43f
000003f0: 0000 0080 9862 b2bf 0000 0000 34da 963f
00000400: f6bf fe39 fc8e bb3f 15c0 6639 36ec 99bf
00000410: 0e31 c317 9dbf abbf fe8b 1a14 2928 ae3f
00000420: 1cfc 5b57 d8f3 bdbf 9c26 4995 eee5 b13f
00000430: 9840 15e0 c0f6 93bf a40a caa8 ca6f 99bf
00000440: 1f54 2b4d 5c99 b0bf b66b 8033 a918 c03f
00000450: c6e0 3280 84b4 c43f 4ab5 e93f a278 a9bf
00000460: 8db3 aaa6 3e99 ae3f 38c7 187d 1578 9f3f
00000470: 70eb f84e 376e 9e3f 6d8a 6079 0ecb a2bf
00000480: b852 f58d 204e c5bf 5574 2680 cb84 973f
00000490: e7c1 374d 581c a13f 71bb bfec 19ce d13f
000004a0: 5f7b 4581 d861 a6bf 4bd6 b190 ad98 b03f
000004b0: bd44 b513 21a1 993f 7bac f7e4 1784 a13f
000004c0: 715d a169 043c 943f fb02 35a2 7fcd a13f
000004d0: 014d e860 15ed b83f 6c32 eb8d 1f71 7cbf
000004e0: 8176 2891 e0ae b9bf f030 b83b 68b9 89bf
000004f0: 8684 4777 ff0b 8fbf 104a 6c1b 1c53 923f
00000500: 67c5 c490 24a1 c7bf c3af d738 049c babf
00000510: 8715 69ff b758 a63f dc42 8004 9fcd b1bf
00000520: 6b99 c614 2a1b a1bf 2363 40d5 12e1 aa3f
00000530: 0813 b53e 9c3a bb3f 2076 7656 ba56 7f3f
00000540: 4b1a 5fd9 4d00 cebf daf5 412d ca61 9d3f
00000550: 17ac 1b2d 5964 8e3f 0039 af14 cc49 d23f
00000560: 9a6c fe13 fce0 a83f 2cd9 71cb 86d5 71bf
00000570: 93d8 2003 e2eb 7dbf 63e8 2de4 a6ba c3bf
00000580: acdf 7329 acf6 8dbf 56bd 1237 719c c0bf
00000590: 3f9e c8de 3cac a13f 3f9c b8b3 8022 c23f
000005a0: 5981 c9c9 97ee a0bf 0026 e755 b3a5 8d3f
000005b0: ee11 8b7b 6d42 a03f ed38 e74d 346f 7c3f
000005c0: 3918 3c03 2337 bc3f 87ab 8ef4 c613 a03f
000005d0: 6b0c a1ec 7281 90bf 2a4b 7da8 322c babf
000005e0: 2c98 d11d 4fa5 a93f cc54 2971 f9dc b1bf
000005f0: 035f 767e 374d b13f 7245 5320 6969 c33f
00000600: 8b73 55ff d55a a3bf 9563 1262 b2c8 b53f
00000610: 266e b224 927d 96bf 40b6 c0dc 1f2b c73f
00000620: bf7f 288b e111 aa3f 57fe 1896 86e1 c1bf
00000630: 405c 49a4 021f b53f 677c 0cd6 78a0 ca3f
00000640: c45d 2be7 eee9 c83f 05fc c87f b96f 96bf
00000650: 21fc cc69 573f 9d3f 3d1b bf2e b2a5 c73f
00000660: 042a 0a3e d710 d13f 525b 9f3c e7e0 aebf
00000670: e4e8 3693 c61b bebf 8023 1b7f a5b1 9d3f
00000680: ae0c e5f5 1888 c53f ecbf 3fed 9f3c c13f
00000690: 79ea 9f23 c972 c73f bd13 82bc dcdf d0bf
000006a0: 0752 4a28 e825 c03f b832 75f8 7a4c 9dbf
000006b0: 5240 c4ec 3f81 d03f 4172 ac38 2a54 c03f
000006c0: acd3 790a a200 abbf 53d6 52a0 9662 d13f
000006d0: 5404 c8a9 fb3d a33f 215f eaa7 760e 87bf
000006e0: 8519 b25b 50c5 b93f 4d20 742b 2c92 60bf
000006f0: 8122 f0f9 ab3a 78bf 8f0a d323 d909 bc3f
00000700: 0d11 4cfb 0f65 bcbf 9de5 8ac9 8f86 bb3f
00000710: 22c8 2d2b 21d2 b73f ba74 0420 f494 b33f
00000720: 84bc 5e21 1365 b13f a1a6 b63d 4278 c0bf
00000730: edc2 e912 97a2 9f3f b7b5 139a 42bb 953f
00000740: b3e4 0345 02d6 a0bf 9eed c7ac 50a4 c7bf
00000750: 0e5b f422 c6ea c33f e288 e007 d517 b43f
00000760: 477d 5536 7c3b b6bf 5b4e 8810 3732 ba3f
00000770: dcae d2b6 c9dd c73f b9e9 de4e a8f4 adbf
00000780: abde 0927 68d7 afbf 34f7 0866 63ff db3f
00000790: f305 2981 97fe c2bf 058e 1acc e170 9dbf
000007a0: fb4a f443 aa13 da3f eab7 7bf5 4bf8 be3f
000007b0: 667c 4a52 96a6 d13f 0f7f e7c2 fa10 afbf
000007c0: 9c41 e087 29c0 c6bf 3bde 45e6 22bc b2bf
000007d0: cbf8 93ae da8d c33f ac9b 1f7f 3718 c73f
000007e0: 4552 06f5 104b b6bf 217e 7d4c fc0e c83f
000007f0: 1c1c 1d9c b9e0 d33f 31ea 7b29 9e00 c73f

linear.weight f8 [1, 64]
0.30931975751399543 -0.36414909823718805 -0.36257854245814486 0.29261867311337675 -0.34631756161403165 0.3563292232168444 0.40212561163084376 0.41695479154009013
-0.41367183626027093 0.2845278348441523 0.21632062140960454 -0.35108327841887776 -0.39676280188322005 -0.39972210256063195 -0.45814664153584095 -0.37243727685468375
0.3572824432080539 -0.38567211464889445 -0.24215709783236106 -0.4911614246389554 -0.4331758612518861 -0.4094849952853828 0.35657178751346313 -0.18581837457282896
-0.3216564136879431 0.34632302620658806 0.2841799142165952 0.6738514667631684 0.8060906816376394 -0.3653736018936137 -0.25861782297509317 0.42347790096052457
0.4203945628970709 0.28240399380977255 -0.42284785974640676 0.33974042023386447 -0.38285889886891733 -0.44926717065474325 -0.3552525241310422 0.4501704873533246
0.6951736868194192 -0.34023684633479745 -0.3452506650316157 -0.5423767136489746 0.2986971528766779 0.15797383957145852 0.3606826407399779 -0.5114229861582116
0.31601787937197107 -0.8525559042523662 0.2943108181893927 0.637767713298834 -0.3899012392846766 -0.32630962246045153 -0.43247539090117 0.16714342600816176
-0.3561842454640435 -0.3346259581874987 -0.3095345140539544 0.3105247859346243 -0.3501811071118577 0.28303743356515104 0.24477737049743395 -0.4260369266158669
00000000: 68df a118 e5cb d33f b9fb f204 384e d7bf
00000010: 7bb3 85a1 7c34 d7bf b222 ceab 43ba d23f
00000020: 2f6a 4a22 112a d6bf dbd3 1416 19ce d63f
00000030: 83a9 b50f 6dbc d93f d3cf 6426 63af da3f
00000040: 84e7 0070 9979 dabf c944 5d3c b435 d23f
00000050: 89cb 33e5 64b0 cb3f 98d1 beff 2578 d6bf
00000060: 7fe5 96ce 8f64 d9bf 151f 7f03 0c95 d9bf
00000070: 86cb 8a4a 4652 ddbf 10bd f928 03d6 d7bf
00000080: 50de 402e b7dd d63f c15a d917 daae d8bf
00000090: f095 d7f7 00ff cebf a663 f853 306f dfbf
000000a0: 4095 5f3f 27b9 dbbf 0d05 bd8d 0035 dabf
000000b0: 41fb 8279 12d2 d63f 7ea1 e480 e5c8 c7bf
000000c0: bba7 55c8 0496 d4bf d22d da0d 282a d63f
000000d0: 1762 6ff3 0030 d23f 8780 83f3 3090 e53f
000000e0: ecce 67af 7ecb e93f 5a1b bdf5 4762 d7bf
000000f0: bace f5c4 318d d0bf 4911 cd0d 431a db3f
00000100: dcc8 c398 bee7 da3f 7e0e 6b33 e812 d23f
00000110: a5d7 3278 f00f dbbf df28 829a 4ebe d53f
00000120: faf8 679c c280 d8bf 8b3a 4817 cbc0 dcbf
00000130: b7b6 3d15 75bc d6bf 6da4 33e0 97cf dc3f
00000140: 9cbb 3de3 dc3e e63f 8abc f9c3 70c6 d5bf
00000150: 22ea ce3e 9618 d6bf 687f e768 265b e1bf
00000160: 8bdf c0a9 da1d d33f 999e 4a9d 7c38 c43f
00000170: cca3 8da4 6c15 d73f 181c ffbc 935d e0bf
00000180: 1da6 360e a339 d43f e1d1 d851 2348 ebbf
00000190: 5be0 be0a fdd5 d23f b405 e2d5 9768 e43f
000001a0: 9171 d953 24f4 d8bf a39d 35c1 41e2 d4bf
000001b0: abb3 0f43 adad dbbf 4b25 39ae f464 c53f
000001c0: 8e95 6701 b9cb d6bf c9b5 b3fe 826a d5bf
000001d0: 4214 b6d9 69cf d3bf 74f1 0b5a a3df d33f
000001e0: 783d ae04 5e69 d6bf af30 2d0a 491d d23f
000001f0: 6b2e 8b68 dd54 cf3f 2606 ad62 3044 dbbf

linear.bias f8 [1]
0.09715399966453878
00000000: 221b 3ca3 15df b83f
